models/early_stopping_checkpoint.pth (torch, 135565 bytes, 72 tensors)

net.0.weight f4 [32, 1]
000000 1d 31 46 3f 49 dd 54 3f 20 e5 6f be 9c 93 6d 3f
       0.7741869 0.83150154 -0.23427248 0.9280336
000010 b0 5c 60 be ef 58 5e 3e 10 45 f9 be 55 a7 15 3f
       -0.21910357 0.21713613 -0.48685503 0.58458453
000020 aa e6 62 3f 0e cf 3b bf 06 17 62 3f ad eb 44 3e
       0.88633215 -0.73362815 0.8831638 0.19230528
000030 0b 55 39 3f a0 76 0e 3e 09 bb ef 3e 07 72 24 be
       0.7239539 0.1391244 0.46822384 -0.16059123
000040 3b 6c 3f 3f d1 ff 16 3e a4 05 ef be 4c ea 7f 3e
       0.7477452 0.14746024 -0.4668399 0.24991721
000050 ac e5 eb be 1f 9c 76 bd fc f3 cf be 93 25 2f 3f
       -0.46073663 -0.060207482 -0.40615833 0.6841671
000060 2a 14 4a bf 8c 09 ec be c8 fc 9c be fe ec 19 bf
       -0.7893702 -0.46101034 -0.30661607 -0.60127246
000070 fa 04 a7 3d 8a d8 7c bf ca 28 64 3f c0 76 59 bf
       0.08155246 -0.9876791 0.8912474 -0.84946823

net.0.bias f4 [32]
000000 36 48 70 3f 75 59 bf 3e ac 3f a6 be 69 e6 ff 3e
       0.93860185 0.37372938 -0.32470453 0.49980476
000010 d3 c1 28 3e a4 e8 80 3f 71 c8 cb 3d b5 b6 90 be
       0.16480188 1.0070996 0.099503405 -0.28264394
000020 37 c9 8d 3e 08 d8 8a be 03 4b 92 3e 9c 4d 91 3f
       0.27692577 -0.27117944 0.28572854 1.135181
000030 4b d1 1a 3f e7 94 07 bf 44 00 05 3f 3d 3b 1f 3e
       0.60475606 -0.5296158 0.5195353 0.15549941
000040 b2 0c f6 3e 76 6b 2d bf a4 6a 7d bf 54 b2 ba be
       0.4805656 -0.677421 -0.98990846 -0.3646418
000050 9c 5b 44 bf 08 08 56 3f 71 3e 97 3e 37 68 da 3e
       -0.76702285 0.83606005 0.29539827 0.42657635
000060 ee ca a5 3e 00 82 8e bc 69 f4 42 3f 38 e4 35 bf
       0.32381386 -0.017395973 0.7615419 -0.7105136
000070 4f 0a 65 3b f4 ba 2e bf f0 2e 50 3e e0 52 b0 be
       0.0034948771 -0.6825402 0.20330405 -0.3443823

net.2.weight f4 [32, 32]
000000 7c de 5d 3d f8 da 16 bd ce 22 16 3e bd 94 d6 bd
       0.054167256 -0.03682992 0.14661714 -0.10477588
000010 4c eb d7 bd a3 ee d7 bd 08 d1 22 3e b1 4c 71 3d
       -0.10542926 -0.10543563 0.15900052 0.05891103
000020 9c 2f 2e 3e 16 64 15 be 7b 8c 33 be 7b 9f 0d be
       0.17010349 -0.14588961 -0.17534058 -0.13830368
000030 1a 8a f3 bd e4 a3 92 3d 26 a3 81 3d d3 69 16 3e
       -0.11891575 0.07160166 0.06329946 0.14688806
000040 49 f7 ba bd 58 ce f6 bd fd 16 c0 3d 70 56 92 bd
       -0.09129197 -0.12051076 0.09379385 -0.07145393
000050 da ba db 3d f2 d2 2b bd 4d 1a cf 3d 6f a5 0c be
       0.107289985 -0.04194922 0.10112438 -0.13734983
000060 e6 b3 b6 bd 0e c1 5c 3d 4e 13 19 3d 1f 9c 38 bd
       -0.08921032 0.05389505 0.037371926 -0.045070764
000070 d9 cc d7 3d 02 1e f6 3d 39 45 03 be eb 47 c1 bd
       0.105371185 0.12017442 -0.12819375 -0.094375454
000080 a5 c0 25 3e c5 53 74 bd 40 59 80 bd 41 27 2f be
       0.1618677 -0.0596502 -0.06267023 -0.17104818
000090 2a 54 cf bd 8e e0 34 3d 83 25 bf bc 3f 66 03 be
       -0.10123475 0.044159465 -0.023333317 -0.12831973
0000a0 2c e0 87 3b 4a 4d f7 bd 82 93 19 be 75 5c c7 bd
       0.0041465964 -0.120752886 -0.14997676 -0.09734432
0000b0 29 6e 1e be 18 86 e6 bd d3 f2 34 3e 94 c2 08 3d
       -0.1547171 -0.11256045 0.17670755 0.03338869
0000c0 a7 21 5f 3d 7a d5 28 be 0b c7 ed bd 6b 03 71 bd
       0.054475453 -0.16487685 -0.1161023 -0.05884115
0000d0 16 73 e2 3c 64 48 1f be 22 fe 9b bd bd bd d8 bd
       0.027642768 -0.15554959 -0.07616831 -0.10583065
0000e0 39 6c 00 3a 3b b7 86 bd b4 b3 48 bc 02 54 f5 bd
       0.0004898939 -0.06577917 -0.012249876 -0.11978914
0000f0 68 80 f8 bd c9 36 d3 bd 8d d9 77 bd 07 e0 0e be
       -0.121338665 -0.10313184 -0.060510207 -0.13952647
000100 41 a9 00 3e 0d a2 6a bd 9a bf 1b 3e 7b c6 05 3d
       0.12564565 -0.05728345 0.15209809 0.03265999
000110 85 be 14 be e1 12 ca 3d 5b fe 39 bd e7 48 b7 bd
       -0.14525802 0.09866882 -0.045408588 -0.08949452
000120 6a 08 2d be 59 f6 33 be cc 6e e7 3c 9f ec 7f bd
       -0.16897741 -0.17574443 0.028251074 -0.06248152
000130 c6 3e 3e 3d 12 41 29 be a1 a2 de 3d 78 98 02 be
       0.046446584 -0.16528729 0.10870863 -0.12753475
000140 8e 63 58 bd 4a ac 8c 3c 32 e7 ba 3d 61 1e f9 3d
       -0.052829318 0.017171998 0.09126128 0.121639974
000150 b7 e6 24 3e 30 f7 27 be 8c d3 53 3d b4 a0 c9 bd
       0.16103636 -0.16402888 0.05171542 -0.09845105
000160 f1 9f 3e bc be 7d 07 be fe 61 18 3e f6 db 04 be
       -0.011634813 -0.1323156 0.14881131 -0.12974533
000170 1f ac 94 3d 2e 78 7e 3d d0 59 10 3d 1e bc c3 bd
       0.07259392 0.06212633 0.035241902 -0.09557365
000180 42 58 31 3e 59 e2 34 3d 6b 4a ba 3c 32 02 14 be
       0.17318824 0.044161174 0.022740563 -0.14453962
000190 1b 82 a9 3d be a3 1e bc 30 cf 98 bd 25 7e 19 3e
       0.08276769 -0.009682594 -0.07461393 0.14989527
0001a0 40 f2 3e 3d b5 4e c8 bd ef 0b a4 bd aa 25 1c 3c
       0.046617746 -0.09780637 -0.08010089 0.009530464
0001b0 6a 73 e0 3d 8e 9c 68 bd b2 0c b7 bd 21 ff 4b bd
       0.109595135 -0.056789927 -0.08937968 -0.049803857
0001c0 a0 a2 f9 bd 45 be 4c 3d c2 1d 0c 3e 45 3f 33 be
       -0.121892214 0.049986143 0.13683227 -0.17504604
0001d0 df 2a 28 3d 3f f3 00 3e 1b 73 3a 3d 45 ed 5b bd
       0.04105651 0.12592791 0.04551993 -0.053693075
0001e0 78 23 da 3d 8f 41 be 3d ed 98 c9 3d c6 78 fe bc
       0.106512964 0.09289848 0.098436214 -0.031063449
0001f0 2c 5e 3e bd c7 ec 9a 3c 3e c7 bf bc 9b c6 57 bd
       -0.046476528 0.018911732 -0.023410436 -0.05267964
000200 8c e2 fe 3d 93 71 26 3e 0d 5d 8f bc 38 e1 e9 bc
       0.12445554 0.16254263 -0.017500425 -0.028549775
000210 c9 37 a3 3b 9c 3d 7f 3b c3 69 35 3d 92 1a 73 3d
       0.0049810153 0.0038946634 0.044290315 0.05935151
000220 5d 7f 19 be 1e 9b 85 bd 90 87 23 3e ee fc ab 3d
       -0.14989991 -0.06523727 0.15969682 0.08397852
000230 fa b4 16 3b 13 c4 cc bd 3b 0f c6 bd ee b5 1e be
       0.0022996054 -0.09998336 -0.09670874 -0.15499088
000240 be 36 3f bd 14 00 86 3d fc d7 e6 3d 54 11 b9 3d
       -0.046683066 0.06542984 0.112716645 0.09036508
000250 ce 02 20 be 1c 27 98 bd 8f de c2 bc a5 67 3a 3e
       -0.1562607 -0.074293345 -0.023787765 0.182036
000260 d9 44 f5 3c cd 83 3b bd c0 75 bf 3d d3 e4 89 bd
       0.029940056 -0.045779992 0.09348631 -0.06733098
000270 3d c5 d4 bd ab 1f 04 3e 56 d4 8e bd 47 27 11 bd
       -0.10389183 0.12902705 -0.069740936 -0.03543785
000280 12 96 3a be ba cf df 3d 82 25 09 3e 90 73 67 3d
       -0.1822131 0.109282926 0.13393214 0.056506693
000290 b3 70 fc bd 26 55 2f be 25 05 13 be 14 1a f6 3d
       -0.12326183 -0.17122325 -0.14357431 0.12016693
0002a0 a9 64 9b 3d 1d 54 18 3e cc e5 ab 3d 14 5e 52 3d
       0.07587559 0.14875837 0.0839344 0.05135925
0002b0 f9 6a 12 bc 70 92 20 be f0 28 21 be f2 50 29 be
       -0.008936637 -0.15680861 -0.15738273 -0.16534784
0002c0 5b 57 84 3d 96 26 e5 bd f1 b8 11 bd 0d d0 ee bd
       0.06461974 -0.11189 -0.035576764 -0.11660776
0002d0 a7 f1 03 bd e7 f3 10 be ce 8f ec bd 87 7a 4f 3d
       -0.03221288 -0.14155541 -0.11550866 0.05065396
0002e0 73 31 57 bd 8a 80 df 3d 7c 5d 6d bd 34 ca 04 be
       -0.052537393 0.10913189 -0.05795048 -0.1296776
0002f0 91 90 1e bd 4f 7f af bd cf fe 80 bd 61 54 2c be
       -0.038712088 -0.08569204 -0.06298601 -0.16829063
000300 ea 3d a1 3d 34 33 05 be 90 f7 b5 3d c6 5c 80 3d
       0.07873137 -0.13007814 0.088851094 0.06267695
000310 d6 0d f6 3d ea c1 1f be f6 76 fb 3d 84 27 ab bd
       0.12014358 -0.15601316 0.122785494 -0.083571464
000320 a4 f6 63 3d 77 ff 29 3e 0e 5d 1d bd b6 06 bd bc
       0.055655137 0.16601358 -0.038418822 -0.02307449
000330 10 01 6a bd fa 25 17 be ab 1c 8c 3d 04 37 3a be
       -0.05712992 -0.1476058 0.068414055 -0.1818505
000340 31 8a c2 3d 76 71 07 3e ee 30 2b 3e 87 cb 2a bd
       0.09499014 0.13226876 0.16717884 -0.041698005
000350 ab bb 14 be 90 e4 9c 3c ec 08 b3 3d 20 32 42 be
       -0.14524715 0.019151956 0.08741936 -0.18964434
000360 bf 66 51 bd ac 06 d9 bd c6 17 10 bd 48 33 b2 bd
       -0.051123377 -0.10596976 -0.035178922 -0.08701187
000370 e7 b6 98 bd 62 dd 65 bd 8f ef 36 be 19 87 14 3e
       -0.07456761 -0.05611933 -0.17864822 0.1450466
000380 11 c1 17 3e b0 2b e3 bc 39 eb a4 bc 54 c1 93 bd
       0.14819743 -0.027730793 -0.020131694 -0.07214609
000390 ca 78 23 be 70 28 30 be 03 8e 86 3d a4 c6 c6 bd
       -0.15964046 -0.17202926 0.06570055 -0.097058564
0003a0 0f bf e8 bd b4 fa 61 bc 36 20 71 bd 0a 41 6a bd
       -0.113645665 -0.013792682 -0.05886861 -0.057190932
0003b0 af 1f ba 3b f7 95 19 bd 0f 4f 79 bd a4 58 ad bd
       0.0056800465 -0.037496533 -0.06086641 -0.084641725
0003c0 89 51 13 be 38 c9 17 3e 1a e2 90 bd 9a dd 3f 3d
       -0.14386572 0.14822853 -0.070743755 0.046842195
0003d0 eb 3a 7b bd 98 5b 6b 3c b0 c3 28 3e a7 cc a6 3d
       -0.061335485 0.014365099 0.16480899 0.08144503
0003e0 0d df 1c be b4 b1 8f 3d d0 d4 2b 3e 20 7e 3e 3d
       -0.15319462 0.07016316 0.167804 0.046507
0003f0 3c b8 f2 3d f7 76 32 3e 38 e6 dd bc 15 49 16 3d
       0.11851546 0.17428194 -0.027087316 0.03669079

net.2.bias f4 [32]
000000 7e a8 bb bd a6 07 33 be f3 1a 14 3d 73 a3 0a 3e
       -0.09162997 -0.17483386 0.036158513 0.13538913
000010 bb b4 b0 bd ab c2 2f 3e 75 be 01 3e ce 72 2f 3c
       -0.086282216 0.17164104 0.1267031 0.010708524
000020 07 1d da bd f2 88 8c 3e f3 85 63 3d 10 be ef 3d
       -0.10650068 0.2744823 0.055547666 0.117061734
000030 6d d7 f4 bd 81 65 26 3e 90 4c f7 bd 6f f4 98 3e
       -0.11955152 0.16249658 -0.1207515 0.29873988
000040 4c 65 99 bd 9e 01 d9 3e c8 47 9b bc 00 b8 9a 3d
       -0.07490024 0.42384046 -0.018955126 0.075546265
000050 0b 5e 3b be 05 cf cb bc 85 de a7 bd d3 ab 83 be
       -0.18297593 -0.024878988 -0.08196739 -0.2571703
000060 ac 18 8b bd 57 09 26 3e aa a0 3e bd 41 97 63 3d
       -0.06791815 0.162145 -0.04653994 0.05556417
000070 a7 d0 3c 3d a1 ca 07 3e d9 0f ba 3d 30 3d 52 3d
       0.046097424 0.1326089 0.09085054 0.051327884

net.4.weight f4 [32, 32]
000000 6f 0f b9 bd 93 ea 13 be 1b 81 b0 3b 96 4d de bd
       -0.09036147 -0.14444952 0.0053864843 -0.10854642
000010 69 70 13 3e 87 f4 2d be a5 bd a1 3d f1 75 34 3e
       0.1439835 -0.16987811 0.078975 0.17623116
000020 ba 51 b5 3d b0 5c 5d 3d ca 2a 2e be 0b 1f 2e 3e
       0.08853479 0.05404347 -0.1700851 0.1700403
000030 0e b4 f7 bc a6 36 2f be 10 b2 32 3e 2a 2d 9a bd
       -0.030237224 -0.1711069 0.17450738 -0.075281456
000040 2f e8 4c bc 40 73 1d 3e 1a 00 fc bd 74 0b 05 be
       -0.012506529 0.15375996 -0.12304707 -0.1299265
000050 bf a1 c5 3c 67 17 cd bc 07 c9 26 3d c3 d2 17 be
       0.024124978 -0.025035573 0.04071906 -0.14826493
000060 da 3c ad 3b de 51 a6 bd 3e fb b1 bd 7c bf 25 be
       0.005286795 -0.08121084 -0.08690499 -0.16186327
000070 36 84 bc 3d d5 7b 0b 3d 91 47 1c be f3 a5 0f 3e
       0.09204905 0.034053642 -0.15261675 0.14028148
000080 96 65 5a 3d b3 5c 06 3d d3 78 c5 bd 22 fd cb 3b
       0.053319536 0.03280325 -0.09642186 0.006225244
000090 76 80 23 3e d8 b1 f4 3d 6f 70 13 be 00 3d 25 3e
       0.15966973 0.119479835 -0.14398359 0.16136551
0000a0 04 7e 60 3c 31 6a 9d 3d d8 78 fc 3d 15 52 1a 3e
       0.0137019195 0.0768627 0.123277366 0.15070374
0000b0 62 1c 0d be 8a b9 18 3e 38 e3 f5 bd 4d 64 2b 3c
       -0.13780358 0.14914528 -0.12006229 0.010460925
0000c0 bd fa fc bd 88 9b cc 3c b7 cc 13 bc 13 c4 f4 bc
       -0.12352512 0.024976507 -0.009020976 -0.029878652
0000d0 b6 f0 0d bd 5f 1f 83 bb 6f fa 30 3e ff 04 c1 3d
       -0.034653388 -0.0040015425 0.17283033 0.09424781
0000e0 bc 8c ca 3d 50 7e 87 3d 4a 24 0c 3e 6d a9 05 bc
       0.09890124 0.06615889 0.13685718 -0.00815807
0000f0 af a9 1c 3c 54 03 15 3d f5 3d 1a be eb 3e 0d be
       0.00956194 0.036380127 -0.15062697 -0.13793533
000100 b8 8b b1 3c d1 a5 8d bd 73 0a 16 bc 5b 25 26 bd
       0.021673068 -0.069163926 -0.009157765 -0.04056297
000110 93 06 b1 3c 8c 74 df 3d 67 22 70 bd a4 f8 10 3e
       0.02160958 0.109109014 -0.05862656 0.14157349
000120 0a ed 0e 3e bf ed 10 be ba d4 11 be 4c 75 12 be
       0.1395761 -0.14153193 -0.14241305 -0.14302558
000130 8e 67 c6 bd 70 27 99 bd ef 00 5a bc c0 8e 48 bd
       -0.0968772 -0.07478225 -0.013305887 -0.048964262
000140 65 eb b6 bd e4 08 66 bd 75 21 8f bd 71 88 2b 3e
       -0.08931617 -0.056160823 -0.06988803 0.16751267
000150 d1 5f 92 bd a6 76 07 be a4 7f 96 3d 4a 99 84 bc
       -0.07147182 -0.13228855 0.07348564 -0.016186375
000160 f6 94 0a 3e 58 f9 d5 3d c4 4e 26 3e 3c 92 04 be
       0.13533387 0.10447949 0.16240984 -0.12946409
000170 d0 9a dc 3d 1f eb 17 3e 91 83 be bd e5 93 20 3e
       0.10771716 0.14835785 -0.09302438 0.15681417
000180 2b b3 07 3e 5d be fd 3a 46 c6 9e 3d 2d 27 7d bd
       0.13251941 0.0019359101 0.077526614 -0.06180494
000190 fc 00 26 be 06 27 18 3d a2 dd 57 3d 16 9d ec bd
       -0.16211313 0.03714659 0.0527016 -0.11553399
0001a0 b0 96 af 3d c5 b7 22 be 93 2d 14 3e 21 4c 2f 3e
       0.08573663 -0.15890415 0.1447051 0.17118885
0001b0 da 22 45 3d 7b 3c f3 bd 9d 31 b0 3d 83 cf b7 3c
       0.04812894 -0.1187677 0.08603213 0.022437816
0001c0 e5 e3 44 3d 6e f8 6d 3d 28 bb 01 3e cd 1f ab bd
       0.0480689 0.05809825 0.1266905 -0.08355675
0001d0 5c 3d 43 bd bc 68 24 3d e3 ca 9d 3c 50 1d 0a 3e
       -0.04766594 0.040138945 0.019261783 0.13487744
0001e0 1a 28 be bd f7 d1 67 bc d0 4b 07 3d 96 4e 40 bd
       -0.092849925 -0.014149181 0.033031285 -0.046949945
0001f0 92 38 e7 3d c3 66 9e 3c ae 56 2e be 0f 16 cf bc
       0.11290087 0.01933611 -0.17025253 -0.025279073
000200 84 34 a4 bd 0a b8 8c 3c 7a cc 56 bc 13 e6 3d be
       -0.08017829 0.0171776 -0.013110274 -0.18544798
000210 ba 23 d9 bc a2 24 34 bc 4f 93 47 bd 28 51 26 3e
       -0.026506294 -0.010995062 -0.04872447 0.16241896
000220 38 fe 1d bd c4 31 f6 3d a9 3f 3c 3d ee cd 18 be
       -0.03857252 0.12021211 0.04595915 -0.14922306
000230 e9 25 2a 3d 7f ee 1c 3e 4a cf ec bd 9f 67 dd bd
       0.04154006 0.15325354 -0.11562975 -0.1081078
000240 cb 30 31 3e 9d 37 55 3e 23 df bd bd e8 78 e4 3d
       0.1730377 0.20821996 -0.092710756 0.111558735
000250 17 76 83 bc b6 04 2d be c7 ac 5d 3c 71 dd 75 3d
       -0.01604752 -0.16896328 0.013529963 0.060025636
000260 e2 31 59 bd d9 f8 86 3d 30 ca 1a be 08 e6 fa 3d
       -0.053026088 0.06590433 -0.15116191 0.12250906
000270 2f 1b 1d 3e fb a6 c7 3d ad 9f c8 3c 92 32 58 3d
       0.15342401 0.09748646 0.024490202 0.052782603
000280 e5 f9 02 be 7b ed 34 bd 57 65 13 bd a2 4b c4 bd
       -0.1279064 -0.04417179 -0.035985317 -0.09584738
000290 a0 12 1a be 8f b4 cb 3d 04 36 ea 3d 4e 66 24 be
       -0.15046167 0.09946548 0.11436084 -0.16054651
0002a0 f8 68 66 3d f7 ca 49 3d aa 7c 19 3e 74 75 d1 3d
       0.05625245 0.049265828 0.14988962 0.102274805
0002b0 ef 6a 26 3e 3a 2c a2 bd 24 91 fd 3d 39 90 fc 3d
       0.1625173 -0.07918592 0.12381199 0.12332196
0002c0 0f f1 2a be 82 85 8c be 3c 92 8e 3c 49 09 99 3d
       -0.16693519 -0.27445608 0.017403714 0.07472474
0002d0 80 67 de bd 20 03 17 ba a9 40 b4 ba a1 64 e5 3c
       -0.10859585 -0.00057606585 -0.001375218 0.028002085
0002e0 94 8a c2 bd 9f 53 a7 3d 55 c2 f0 3d 1a 34 fb bd
       -0.09499088 0.08170246 0.11755816 -0.12265797
0002f0 6f e2 8b bc d2 93 00 3a 7d f1 3b 3d 2f d1 1f 3e
       -0.017075745 0.00049048394 0.045884598 0.15607141
000300 6d 58 54 3d ba 86 24 bd 8e 94 2a 3e 7d 59 c1 bd
       0.051842142 -0.040167548 0.16658232 -0.09440897
000310 4c 10 44 bd ca 43 86 3c 1a 3a 11 be 97 95 9d 3c
       -0.047867104 0.016389746 -0.1418232 0.019236369
000320 66 a2 f5 bd c9 d5 93 3c 48 df 91 3c 60 74 c8 3c
       -0.11993866 0.018046277 0.017806664 0.024469554
000330 1e a7 18 be 78 aa 28 be 8c 94 a6 3d 91 c1 1e 3e
       -0.149075 -0.16471279 0.08133802 0.15503527
000340 ae a1 20 be 19 fb 15 3b d6 1e fe bd 1b a8 38 3c
       -0.15686676 0.0022885262 -0.12408225 0.011270548
000350 1a c0 2c 3e 31 54 0d 3e 21 b0 05 be 7d 19 e9 3d
       0.16870156 0.13801648 -0.13055469 0.11381815
000360 59 19 bd 3d 32 c2 8f 3b b8 5b 2f 3e f3 ca 8f bd
       0.0923335 0.0043871636 0.17124832 -0.07021131
000370 2f bd 24 bd be fa b6 bd 68 8c c4 3c bd de 31 3d
       -0.040219482 -0.08934544 0.023992732 0.04342531
000380 4d c7 66 3c 46 b2 cb bd 8c 78 bf bd f6 4b 76 3d
       0.014085603 -0.09946112 -0.09349164 0.060131036
000390 79 49 2d be af b1 2a bd d2 50 80 bb 5c af 92 bd
       -0.16922559 -0.04167336 -0.0039158845 -0.071623534
0003a0 9e c0 83 3d ea 69 39 bb f8 11 e1 3d e1 9c 80 bc
       0.06433223 -0.002829189 0.109897554 -0.015699806
0003b0 1c 7f e4 bd 94 95 e2 3d a9 3b ca 3c 90 dc 84 bd
       -0.11157057 0.11063686 0.024686651 -0.064873815
0003c0 e6 9e ee bd 3a b7 29 3d 2d 1e 3b be 56 67 04 3d
       -0.11651401 0.041434504 -0.1827323 0.03232511
0003d0 52 d5 95 3d cb 52 2d be 48 04 ed bd 9d b6 10 be
       0.07316078 -0.16926114 -0.11573082 -0.14132161
0003e0 df 25 18 3e 6f 53 0b 3e ba 4f 35 3c 27 f1 29 3e
       0.14858197 0.13606046 0.011066372 0.16595899
0003f0 df 15 96 bd d3 bc 2f be a1 ea 7c 3d 48 42 80 3d
       -0.0732839 -0.17161874 0.061747197 0.06262642

net.4.bias f4 [32]
000000 21 fc ad 3d 04 de bd 3e 6d b3 b1 3c 0e fa 2d be
       0.084953554 0.37083447 0.021692002 -0.1698992
000010 79 c1 5a 3e aa d0 be bd d7 6f 81 bb 89 e3 39 be
       0.21362866 -0.09317143 -0.0039501 -0.18153204
000020 ac bd 22 bd ac 68 d8 bd 61 62 0e 3e e8 e8 13 3f
       -0.039731666 -0.105668396 0.13904716 0.5777726
000030 0d dd b2 3d 20 a1 ce 3d f3 e1 0f be 0e 7c 9b bd
       0.08733568 0.10089326 -0.14051037 -0.07592021
000040 16 af 8d bd 96 21 c4 bc a0 35 51 3e 3a 68 89 3d
       -0.069181606 -0.023941796 0.20430613 0.06709333
000050 27 c9 ed 3d 79 7c 07 bc 95 5d 21 be a3 e5 15 bd
       0.116106324 -0.008269423 -0.15758355 -0.03659595
000060 75 5e 0a 3e 8f eb 91 3d a0 ef 3c 3d 56 64 54 bd
       0.13512595 0.07125007 0.04612696 -0.0518535
000070 31 dc 2c be 70 f7 1d be aa d8 83 bd c2 9e 88 bd
       -0.16880871 -0.15426421 -0.0643781 -0.06670906

net.6.weight f4 [32, 32]
000000 54 2d ad 3d f1 b3 45 3d f1 0d 8b bd 88 82 dc 3d
       0.08455911 0.04826731 -0.067897685 0.10767084
000010 6d ab 68 bd 40 72 c0 bb be e7 89 bd b5 b5 2b be
       -0.05680411 -0.0058729947 -0.067336544 -0.16768534
000020 73 7f e9 3c 71 3c 51 3d 9c 47 b6 bd 6b 17 de 3d
       0.028503155 0.051083032 -0.08900377 0.108443104
000030 67 62 22 be 97 7f 2e be e1 9c df bd a3 3e 7a bd
       -0.1585785 -0.17040859 -0.10918594 -0.06109489
000040 4f d4 a0 bc 25 ed 0b bd f3 3a a5 3d fe dd 1e be
       -0.019632487 -0.034161706 0.08067884 -0.15514371
000050 bb 3c d5 3c 0e a1 48 3b 2f 40 3f 3d 9d f2 33 3e
       0.026029935 0.0030613574 0.04669207 0.17573018
000060 ef d0 de 3d 65 76 c8 bd 35 56 14 be c1 4c 2f bd
       0.10879695 -0.09788207 -0.1448601 -0.042797808
000070 bd 9b b5 bd 88 ec 7c 3d 19 67 d4 3a 1e 99 11 3e
       -0.08867595 0.06174901 0.0016205042 0.14218566
000080 2b 7d 91 3d e6 7b c1 bc 4b 75 29 3c 4b 92 17 3d
       0.07103952 -0.02361865 0.010342906 0.03700475
000090 1a 1d 37 bc c4 f9 15 3e 5b b7 04 be f9 6c c8 3d
       -0.011176372 0.1464606 -0.1296057 0.0978641
0000a0 83 c7 e6 bd 58 fa 1b be d7 35 4b bd 9a 81 8b 3e
       -0.112685226 -0.15232217 -0.049611893 0.27247316
0000b0 fd 0b 09 3e 52 48 0f 3d 11 01 08 bc 81 5d 22 bc
       0.1338348 0.03498108 -0.0083010355 -0.009909988
0000c0 83 c3 92 bd a7 c2 1d bc 4f 3e 5c bb ee f0 20 3e
       -0.07166197 -0.009628928 -0.0033606475 0.15716907
0000d0 8a 30 bd 3d 23 db 10 be a0 b2 3f 3a 6c 88 c2 bd
       0.09237774 -0.14146094 0.0007312689 -0.09498677
0000e0 6c d0 d4 bc 78 bf 08 be 2b b8 48 3d 71 87 02 be
       -0.02597829 -0.1335429 0.04900376 -0.1274698
0000f0 0d 7a 2e 3e ae 7e 0a 3e 10 57 ea bd ad 13 2a be
       0.17038746 0.13524887 -0.11442387 -0.16609068
000100 b8 03 e2 3b 9d 20 4a bd a4 90 54 3d af 11 f5 bd
       0.006897416 -0.04934751 0.051895753 -0.119662635
000110 85 32 94 3d f7 5a 1c be bb 12 bf bd 0a 53 be bd
       0.07236198 -0.15269075 -0.093297444 -0.09293182
000120 f8 2f af 3d 67 a8 97 bb fa f6 2d be 7d c4 ce bd
       0.08554071 -0.0046282294 -0.16988745 -0.10096071
000130 0b 8b a7 bd 81 f4 27 be 82 6e b9 3c 13 02 81 3d
       -0.08180817 -0.16401865 0.022635702 0.06299224
000140 1d da 04 bd 48 12 90 bd a5 84 8c ba c5 c7 0f be
       -0.03243457 -0.07034737 -0.0010720683 -0.1404105
000150 26 72 dc bd ae 1b 84 bb 3f d0 20 3e ea a8 5e bd
       -0.107639596 -0.00403162 0.1570444 -0.054360308
000160 a9 72 b3 3d ff 7a 8e bd 6f bf 40 bd 03 52 2c be
       0.08762104 -0.069570534 -0.047057565 -0.1682816
000170 c8 f8 15 3e 76 43 30 3e dd 53 73 bb 47 07 e6 3d
       0.14645684 0.17213234 -0.0037128844 0.11231857
000180 cf 3b 11 3e 1d 67 d5 3d 20 5d b7 3d e2 1c 20 be
       0.14182971 0.10420058 0.08953309 -0.15636018
000190 3f 84 18 be 6f c0 f9 bd b4 ba 92 3d 4e 39 10 be
       -0.14894198 -0.12194907 0.07164517 -0.1408436
0001a0 1e 2e 0a be 79 da 92 bd bf 33 15 be 54 3a 3c 3e
       -0.13494155 -0.071705766 -0.14570521 0.18381625
0001b0 f6 fa 2d 3d 13 52 be bd 2e 87 00 3e 35 72 89 bd
       0.042475663 -0.09292998 0.12551567 -0.067112364
0001c0 ec d8 4b bd 60 44 14 3e 2d f9 2c 3e 66 69 ad bb
       -0.04976742 0.14479208 0.16891928 -0.0052921055
0001d0 01 e9 eb bd a4 9f b5 bd 2c 68 b8 3c dd b8 ec 3d
       -0.11519051 -0.0886834 0.02251061 0.115586974
0001e0 a0 a9 ce 3d b3 5d 7f bd 77 b5 25 be 24 6b 1e be
       0.10090947 -0.062345218 -0.16182505 -0.15470558
0001f0 af db 4a bd 6e 93 73 3c 02 d7 81 bd 86 c3 0f be
       -0.049525913 0.014866693 -0.063398376 -0.1403943
000200 20 9e 98 3c 62 51 17 be c9 e6 10 be 35 34 12 be
       0.018630087 -0.14777139 -0.14150538 -0.14277728
000210 53 fb 8e bd c1 54 27 3e 41 02 89 3d 6d 1b 00 bd
       -0.0698153 0.16340925 0.06689883 -0.031276155
000220 f5 05 15 3d ec e1 8c 3d 23 ff 86 3a f6 08 d8 be
       0.036382634 0.06879029 0.0010299425 -0.42194337
000230 01 db eb bd 93 ae f7 bd c9 bf 2b 3c 95 b4 25 be
       -0.11516381 -0.12093844 0.010482737 -0.16182168
000240 0d a7 03 bd 99 09 59 bd e0 d7 25 3e 4f 71 10 3e
       -0.032141734 -0.05298767 0.16195631 0.14105724
000250 a0 4a d2 3d 79 6e 22 3c c1 6f 6a bd 16 e3 18 3d
       0.1026814 0.009914034 -0.057235483 0.03732594
000260 ac 24 fa bd f7 06 9f bd 7f 31 27 bd 19 20 2a bd
       -0.12214026 -0.07765 -0.040818688 -0.041534517
000270 2c ef 28 be 17 36 9f 3d c7 ff 15 3e df b0 c7 bd
       -0.16497487 0.07773989 0.14648353 -0.09750532
000280 1d ce 2e 3d 9c 78 ba 3b 31 05 1b bc d3 b0 e1 3b
       0.042677034 0.0056906473 -0.009461687 0.006887534
000290 99 1b 50 3e 7e 31 77 bd a7 09 d3 bd ef 3a 82 bd
       0.20323028 -0.060349934 -0.103045754 -0.06358897
0002a0 a3 dd b0 3d 94 8f 52 3d ec e3 96 3c b1 47 84 3e
       0.08636024 0.051406458 0.018419228 0.25835946
0002b0 7f e4 2b bd ed 75 5a bd e4 d3 c8 bd 13 4c ed 3c
       -0.041965958 -0.05333512 -0.0980604 0.02896694
0002c0 f4 59 4b 3d d6 17 04 3e 13 94 24 3b 6b 56 e5 3c
       0.049646333 0.12899718 0.0025112673 0.027995309
0002d0 02 38 fe 3d c2 7b 9d 3d f0 11 ba 3c dc 5a 8d 3d
       0.124130264 0.076896206 0.022713631 0.06902096
0002e0 0e 39 55 39 c4 5c 0f be bc 6c 5b 3b 9f 44 1e bd
       0.00020334517 -0.14000231 0.0033481559 -0.03863966
0002f0 af ea 21 3e 60 c1 ae 3d 27 a9 52 3d d0 99 20 3e
       0.15812181 0.08532977 0.051430847 0.15683675
000300 01 7e ba bd b3 50 09 3e df da 1b 3e 52 66 dd bb
       -0.091060646 0.1340969 0.15220211 -0.0067565823
000310 5f a6 26 be e8 ed 89 bd a8 e0 86 bd 6b 5d 3f 3b
       -0.16274403 -0.0673483 -0.065858185 0.0029199969
000320 14 1f 24 be 11 5b f6 3c 8f c2 b2 bd a5 33 80 bd
       -0.1602748 0.03007272 -0.08728515 -0.062598504
000330 04 ea e8 bd 52 d8 4a bd 2c 2f 2d be f9 f0 bf bd
       -0.1137276 -0.049522705 -0.16912526 -0.09372134
000340 42 69 85 3c 2f 36 ec 3d c6 65 0e 3e 3f 3a 1d be
       0.016285542 0.11533772 0.13906011 -0.1535425
000350 7a 8c 7f 3d 65 14 cc bd d4 f4 0b be c9 b5 4b bc
       0.06238983 -0.099648274 -0.13667613 -0.012433478
000360 5f e3 e9 bd f4 62 2f be 62 f4 31 be 7a 54 f2 bd
       -0.11420321 -0.17127591 -0.17378381 -0.11832519
000370 04 c0 14 3e 1e fc b5 3d b0 e5 b8 bd ea 51 f2 bd
       0.14526373 0.08885978 -0.090281844 -0.1183203
000380 98 eb 0d be c7 4b c0 bd 1e 1e a1 bd af c2 de 3d
       -0.13859403 -0.093894534 -0.078670725 0.10876977
000390 69 78 8a 3d 41 7e 7c bd ce 40 06 3e b1 36 c9 bd
       0.06761248 -0.061643843 0.13110659 -0.09824885
0003a0 6a 79 13 be 69 4a 39 3d 34 94 aa bd 1e 91 85 3e
       -0.14401785 0.04523698 -0.08329049 0.26087278
0003b0 fc 2c 25 3e 97 11 9a bd 61 87 e6 bd 7a 45 88 3d
       0.16130441 -0.07522886 -0.1125629 0.066538766
0003c0 b2 7c 23 be 5c 4e 2a 3e 79 7a 95 bd 3c 3e c1 3d
       -0.15965536 0.16631454 -0.072987504 0.094356984
0003d0 51 20 07 be 6e 0d f5 bd 5c 85 9f 3c 2d bf 9b 3d
       -0.13195921 -0.11965452 0.01947277 0.07604823
0003e0 98 b3 0c 3e 60 1f 21 3e fe 4d 82 bc 6a 2f ba bc
       0.13740385 0.15734625 -0.01590633 -0.022727687
0003f0 61 d7 02 3d 0c 9d 0a bd 9d e2 86 3c 91 0b 2c be
       0.031943683 -0.033841178 0.01646548 -0.16801287

net.6.bias f4 [32]
000000 4a 49 0a be 8d cb ed 3d 21 00 cd 3d 1e 54 5c 3e
       -0.1350452 0.1161109 0.1000979 0.21516463
000010 eb cc c0 be f7 76 c6 3e 43 7b e0 3d 85 a9 5d 3e
       -0.3765634 0.38762638 0.1096101 0.21646698
000020 0c 51 b2 3d 26 35 15 be e2 92 13 3e 9c 90 0c 3e
       0.08706865 -0.14571056 0.144115 0.13727039
000030 c4 6e 8a bd 66 53 a3 3d c6 4b a7 3e 5a 23 1b 3e
       -0.06759408 0.07974891 0.32674998 0.15150204
000040 29 77 60 3d 3c b1 1c 3e 80 a4 f0 3b 6e 85 a8 bd
       0.05480114 0.15301985 0.0073438287 -0.08228575
000050 41 0c 6d be a7 73 39 3e f5 03 17 3d 35 d4 0b be
       -0.23149206 0.18110524 0.036869008 -0.1365517
000060 41 78 09 bd 2f 80 19 be c1 5c 30 be c4 18 99 3d
       -0.03356195 -0.14990304 -0.17222883 0.07475427
000070 fa 3d cc bd 96 be 7e 3d a1 78 40 bd 21 ee bb bd
       -0.099727586 0.062193476 -0.04699004 -0.09176279

net.8.weight f4 [32, 32]
000000 ac 71 ef b8 cb 7c 07 3e ff 54 c8 bc aa 21 05 3e
       -0.00011417581 0.13231198 -0.024454592 0.13001123
000010 b1 73 c7 3d 2b f9 15 3e 32 92 32 be e7 fe b8 bd
       0.09738863 0.14645831 -0.17438582 -0.09032994
000020 43 da 1a be 6e f7 2a bd d2 d6 69 bd 10 34 d8 3c
       -0.15122323 -0.041739874 -0.057089634 0.026392013
000030 22 30 22 3e 81 53 94 3d d7 f2 05 be 5e 7f ef bd
       0.15838674 0.072424896 -0.13080917 -0.11694215
000040 cd d7 00 3e d9 61 0d 3c 9a a1 34 3d ec cf df bd
       0.12582321 0.008629286 0.044099428 -0.1092833
000050 ad a5 0b bd 54 69 25 3d 6c e8 fb bd e7 49 ec 3d
       -0.034093548 0.04038365 -0.1230019 0.11537533
000060 d4 90 aa 3d 74 fb c6 bd bd 7e 88 bd 3d ba 55 bd
       0.08328405 -0.097159296 -0.066647984 -0.052179564
000070 65 36 78 3c f5 bc 96 bd 3f 7c 25 3e 1c c1 1e be
       0.015149687 -0.073602594 0.16160677 -0.15503353
000080 c3 9f cc bd d9 af c3 bc bc c6 43 3d cc e2 ae 3d
       -0.0999141 -0.023887562 0.04779695 0.08539352
000090 8c ee 9c be 56 0c a8 3e 47 07 19 be 30 20 05 3e
       -0.30650747 0.32821912 -0.14944182 0.1300056
0000a0 23 f2 97 bd 61 16 00 bd 1c 76 b4 bd 89 41 cd bd
       -0.07419231 -0.031271342 -0.0881159 -0.100222655
0000b0 f1 95 19 be 31 fc 01 3e 17 89 80 3c d9 8e 9a 3d
       -0.14998604 0.1269386 0.01569037 0.07546777
0000c0 7a e3 22 be 55 1e 40 bb 35 54 97 3d 26 cd 08 3e
       -0.15907088 -0.0029314954 0.07389108 0.13359508
0000d0 dc 6d 6f bd a4 b9 1f 3e bb e9 52 3d 5f 31 dc 3d
       -0.05845438 0.1559816 0.051492434 0.10751604
0000e0 0a fa f2 3d cb eb 92 3d f3 57 5a bd 5d 01 97 3c
       0.118640974 0.0717388 -0.05330653 0.018433267
0000f0 2f f1 8c 3d 7d 28 ed 3d 60 87 1a bc 05 34 f5 3d
       0.068819396 0.11579988 -0.00943169 0.119728126
000100 34 cf d9 bd 4d 54 c3 3d cb b5 b1 bc b0 b2 06 be
       -0.10635224 0.095375635 -0.021693131 -0.13154101
000110 17 11 b7 bd 28 a0 13 be 86 db 0d 3d 5f 19 df bd
       -0.089388065 -0.14416564 0.034633182 -0.10893511
000120 0d 55 60 bd db 77 35 bc 85 bf e7 bd 20 70 7d ba
       -0.05476861 -0.011075939 -0.11315826 -0.0009667892
000130 00 ca b7 bc 05 58 55 3d 7f 04 fc 3d 34 8d da bd
       -0.022435188 0.052085895 0.12305545 -0.106714636
000140 9c b2 bc 3d 9f 2a 11 bc 84 e5 d6 bd df 59 b8 bd
       0.092137545 -0.008860259 -0.104929954 -0.090015166
000150 1e 4e 38 3d a5 42 fb 3c f3 35 31 bc 45 3d b4 bd
       0.044996373 0.030671427 -0.010816085 -0.08800749
000160 26 99 b0 3d b1 d4 03 3d de f8 29 be 7d 47 13 bd
       0.08622961 0.03218526 -0.16598842 -0.03595685
000170 a1 7e 6a bd 94 89 a5 bd 60 f7 d5 bd ab da 12 be
       -0.05724967 -0.080828816 -0.10447574 -0.14341228
000180 62 49 32 3e d1 d5 2d be 7f 45 28 3e 3b 95 2a be
       0.17410806 -0.16976096 0.1643276 -0.1665849
000190 05 58 5c bd 72 29 fc bd ee ad e2 bd 29 3a 3f 3d
       -0.05379488 -0.123125926 -0.11068331 0.046686325
0001a0 c0 82 b7 3d bd 53 09 be 70 7c e7 bd 6e 85 9a 3d
       0.089604855 -0.1341085 -0.113030314 0.07544981
0001b0 19 0c af bc de 26 e8 3c 14 0d 9f 3d 11 77 b4 bd
       -0.021368073 0.028338846 0.07766166 -0.088117726
0001c0 36 aa e1 bd de 16 44 3d 1e 2c 9e bd c0 76 12 be
       -0.11018793 0.04787337 -0.077232584 -0.14303112
0001d0 5c ba e4 bd aa 98 cf bd 0f 28 2b 3e c8 41 0b 3d
       -0.11168358 -0.1013654 0.167145 0.03399828
0001e0 1c b8 8c 3d 76 35 f3 3c d5 16 e8 bd e6 5a e0 3d
       0.068710536 0.029688578 -0.1133248 0.109548375
0001f0 1e 28 2c bd 4e c2 6e bd 78 97 0b 3e 37 41 e0 bd
       -0.042030446 -0.058290772 0.13632 -0.10949939
000200 ab 07 13 3d 81 53 fd bd 54 84 b9 3d 71 1a c1 3d
       0.035895985 -0.12369443 0.09058443 0.094288714
000210 01 89 15 be a9 77 37 3e eb 39 14 3d 61 c7 88 bd
       -0.14603044 0.1791674 0.036188047 -0.066786535
000220 d4 6b 2d 3e fc c1 83 3d 33 99 c6 3d b7 c3 2e bd
       0.16935664 0.06433484 0.09697189 -0.042667117
000230 60 83 c6 bd 07 af 98 bd 00 51 ba 3d 4f 56 71 3d
       -0.096930265 -0.07455259 0.09097481 0.0589202
000240 95 f0 af bd 51 38 39 3e 88 a3 fb 3d 99 b1 47 bd
       -0.08590809 0.18087889 0.122870505 -0.048753355
000250 77 54 bb 3d f3 5c 5a bd fd dc 92 3d 18 ab 16 3e
       0.0914697 -0.0533113 0.071710564 0.14713705
000260 21 2f 0e be 18 02 b4 bd db af 23 bc a0 be 52 3d
       -0.13885166 -0.08789462 -0.009990658 0.051451325
000270 8c 71 06 be 00 75 c2 bd f7 da 95 bb 2c c6 bc bc
       -0.13129252 -0.09494972 -0.004573222 -0.023043714
000280 f6 2d 1c 3d 96 03 b8 3c e7 89 14 3d a5 01 40 3c
       0.03812977 0.022462647 0.036264326 0.011719142
000290 63 72 a6 3c df 2b 27 bc 2b 04 82 3d 11 17 f7 3d
       0.020318216 -0.010203331 0.06348451 0.120649464
0002a0 ed ac b4 bd fa 8d bb bd 7d e7 9e 3d b4 e6 02 be
       -0.088220455 -0.09157939 0.07758997 -0.12783319
0002b0 13 46 eb 3d 0f 41 a7 3d 11 73 d1 3c fe 2c 9d bd
       0.11487975 0.08166706 0.025567563 -0.07674597
0002c0 e1 b1 ad 3b a5 1f 0f be 1a dc 22 be 70 77 2a 3e
       0.005300746 -0.13976915 -0.15904275 0.16647124
0002d0 6a 5c 22 be 96 33 16 be 08 a2 8c bd 29 a6 22 3c
       -0.15855566 -0.14668116 -0.068668425 0.009927311
0002e0 a0 d6 25 3d 04 68 b2 bd fc 86 8c bc 8b b1 21 bd
       0.040487885 -0.08711246 -0.01715421 -0.03947596
0002f0 a7 76 17 3e d0 1d 1d 3e 1a cd 94 3d 14 d3 8e ba
       0.14791356 0.15343404 0.072656825 -0.0010896646
000300 a1 c0 07 3e f5 26 12 be 18 44 97 3d 14 70 d2 bd
       0.13257076 -0.14272673 0.07386035 -0.102752835
000310 86 2b 0d 3e d5 04 20 be 36 84 86 3d c3 d4 14 be
       0.13786134 -0.15626843 0.06568186 -0.14534287
000320 a0 4d d3 3d b4 65 04 3d 55 52 1b 3e 26 87 08 be
       0.1031754 0.032323554 0.15168126 -0.13332805
000330 e9 02 e9 3d 82 9c f1 bd 50 6c c3 bd 30 b4 89 3d
       0.11377508 -0.117974296 -0.09542143 0.06723821
000340 15 c2 f3 bc b7 eb 0e be 1e 08 1a be 17 fd 3b bd
       -0.029755631 -0.13957106 -0.15042159 -0.045895662
000350 28 7b 48 3d ca ff 1e 3e c3 21 05 3e d0 dd 3d 3b
       0.048945576 0.15527263 0.1300116 0.0028971322
000360 83 12 de bd 75 63 21 be 13 b9 21 3e 4d da c9 bd
       -0.108433746 -0.15760596 0.15793256 -0.09856091
000370 c5 b0 fe bc 34 11 12 be bf 3e fa bd 24 7f 0c 3d
       -0.03109015 -0.14264375 -0.12218999 0.03430094
000380 d2 01 33 bd c6 b0 e7 3c ba 33 b1 ba 7c e3 ce 3c
       -0.043702908 0.028282534 -0.0013519444 0.025254957
000390 9e fd 12 bd b8 0c 12 3d f0 e5 b3 3d ad b4 10 3e
       -0.0358864 0.03565666 0.087840915 0.14131422
0003a0 86 1c 23 3e 3a cd 26 be d5 1c 06 be 41 8a 25 bc
       0.1592885 -0.16289225 -0.13096936 -0.010103763
0003b0 10 f3 5c bc 33 7a dd 3d 50 02 39 3e ac af 52 3d
       -0.013485685 0.10814323 0.18067288 0.051437065
0003c0 54 2a e8 bd 2b 92 20 bc 39 06 fc 3d 7f af a4 3d
       -0.113361984 -0.009800474 0.123058744 0.08041286
0003d0 ef 74 12 be 9a a8 bc 3c d9 3a 25 be 07 e3 91 bd
       -0.14302419 0.023029614 -0.1613573 -0.0712338
0003e0 e8 a6 06 3e 22 20 a9 bd b0 20 d1 3d ee 8d 00 be
       0.13149607 -0.08258082 0.10211313 -0.12554142
0003f0 18 6e 2f 3e 47 57 c8 3d d4 cc fa 3d 5b c4 97 3c
       0.17131841 0.09782272 0.12246099 0.018526247

net.8.bias f4 [32]
000000 2a ff a8 3d 9d fe ce 3e 31 9a e4 bc 07 25 13 3e
       0.08251794 0.4042863 -0.027905555 0.14369594
000010 dc fc a2 3d 3d 77 bf bd ef 4a c5 bd 90 8e 33 3e
       0.07958385 -0.09348915 -0.09633433 0.17534852
000020 47 a8 92 bd 76 02 da 3d 84 a1 ff be ec 89 c7 3b
       -0.071610026 0.10645001 -0.49927914 0.0060894396
000030 62 c5 83 bd 6f 98 34 3d fb 10 98 3e c6 bb fc 3d
       -0.06434132 0.044090685 0.29700455 0.123405024
000040 03 f5 78 bd db f8 2f be d7 60 ef bc 0c c9 d0 bd
       -0.060780536 -0.17184775 -0.029220982 -0.10194597
000050 ed 02 1a 3e 07 aa c5 be 04 07 4b 3d c6 89 67 3e
       0.15040179 -0.38606283 0.049567237 0.2261115
000060 80 c4 f4 3c d0 49 2d be 1d 81 a4 bc 7b 26 cd bd
       0.029878855 -0.16922688 -0.020081097 -0.10017105
000070 ac 64 ad 3e 17 79 55 bd 73 fb 3a bc a8 54 0c 3e
       0.3386587 -0.052117433 -0.011412489 0.13704169

net.10.weight f4 [2, 32]
000000 fd 97 48 3d 9d c5 dc 3e 49 87 5c bd 2d 7a f6 3d
       0.048973072 0.43119517 -0.053839955 0.12035022
000010 a6 b6 8a 3e a7 72 11 bd 10 8a 0b 3d a2 9e aa bd
       0.27092475 -0.03550973 0.034067214 -0.08331038
000020 98 fe d4 3b 10 0c b2 3d 95 35 95 3c c6 4e c0 bd
       0.0065000765 0.08693707 0.018214026 -0.09390025
000030 8d d0 65 3e eb c6 83 3b 34 ed 9f 3e 6b 5c be 3d
       0.22442837 0.0040215156 0.3123566 0.09294971
000040 75 7d a2 bd 64 b1 0f 3e a8 6d 04 3e 1b d0 83 bd
       -0.07934085 0.14032513 0.12932456 -0.06436177
000050 25 8c ce 3d 9e 61 cb 3d 76 6d e4 bc 0e 6a 8f 3d
       0.10085324 0.099307284 -0.027884226 0.0700265
000060 f0 30 28 bd 1f e4 d2 3d 21 97 1a be 93 d4 2f 3e
       -0.041062295 0.10297417 -0.15096714 0.17170934
000070 a1 06 38 3e 40 d4 88 3e fc 7b 90 3d 9a 88 03 be
       0.17971279 0.26724434 0.07054898 -0.12845078
000080 3d b0 7a 3d f3 ef 35 be d9 16 21 3e 5d f4 b0 3d
       0.06120323 -0.17767315 0.15731372 0.086403586
000090 15 b7 01 be da 5b 21 3e 52 81 01 bd 71 23 65 bd
       -0.12667497 0.15757695 -0.03161747 -0.055942003
0000a0 e8 84 58 3d e9 a1 2e 3e c3 7c 73 3e b1 a8 2e be
       0.052861124 0.17053951 0.23778062 -0.17056538
0000b0 19 6e 89 bd fe bc 25 3e ed cc 52 be a4 b5 ce bd
       -0.067104526 0.16185376 -0.20585985 -0.10093239
0000c0 c3 49 10 be ab d2 bb bd 8a 7f d8 bd 6d 72 2e 3d
       -0.14090638 -0.09171041 -0.10571201 0.042589594
0000d0 a1 cb 72 3d 08 56 95 3e a7 48 d9 3d 40 63 75 bc
       0.059276227 0.291672 0.106095605 -0.014977276
0000e0 ed d1 85 3d 6e 6b b4 3d 3a 22 1c be c6 0d c5 3d
       0.06534181 0.08809553 -0.15247431 0.09621768
0000f0 b0 c7 b6 be f7 e4 13 3e cc 74 9d bd bd 3e da 3c
       -0.35699224 0.14442812 -0.07688293 0.026641244

net.10.bias f4 [2]
000000 f0 c2 ba 3d c3 86 07 3d
       0.091192126 0.033087503

net.0.weight f4 [32, 1]
000000 a9 68 0c 3f ad 86 17 3f 16 33 3c be 0f 63 26 3f
       0.548472 0.59189874 -0.18378863 0.649949
000010 18 56 27 be e9 45 83 3d 08 e7 c2 be 12 c1 cb 3e
       -0.16341436 0.06409819 -0.38066888 0.39795738
000020 c4 79 20 3f ef b6 05 bf 19 11 1c 3f c8 2e e9 3d
       0.626858 -0.5223226 0.6096359 0.11385876
000030 6e 94 06 3f 67 6e c5 3d be f5 ae 3e a2 5f 9e bb
       0.52570236 0.09640198 0.3417186 -0.0048331777
000040 9e 9a 0b 3f 7b c9 1b 3e 9b cf a9 be 44 53 3a 3e
       0.545328 0.15213577 -0.33166203 0.18195826
000050 b0 a9 aa be 3b a0 85 bc 41 69 95 be ca 3a e7 3e
       -0.33332586 -0.016311755 -0.29181865 0.4516204
000060 5d b6 0d bf db 05 a1 be 6b 17 4b be b9 64 d4 be
       -0.5535639 -0.3144978 -0.19833152 -0.41483095
000070 a6 88 4f 3d 50 bb 35 bf 85 6e 20 3f 77 a3 18 bf
       0.050667427 -0.7098894 0.6266864 -0.5962443

net.0.bias f4 [32]
000000 9b 3a 3c 39 b3 78 9e 3c 15 0b c3 bc 61 4a 46 bb
       0.0001795091 0.019344663 -0.023808995 -0.0030256736
000010 38 c9 03 bd 19 e3 82 3c cc ef af bc 40 df ab 3c
       -0.03217432 0.01597743 -0.021476649 0.020980477
000020 1b 83 2f 3c 6f c8 9c bc ea 21 a0 3b 00 a3 62 bc
       0.01071241 -0.019138543 0.0048868554 -0.013832808
000030 06 8c df bc ed c4 ab 3c a6 05 11 3a 91 fe ff 3c
       -0.027288448 0.020967925 0.0005532153 0.031249316
000040 93 8d c6 bc 37 c1 9b bb 9f 70 b8 bb 70 e7 b7 3c
       -0.02423743 -0.0047532576 -0.00562866 0.022449225
000050 86 7b a2 3c 63 ae c6 3c ec ca 80 bc 53 e1 f1 ba
       0.019834291 0.024253076 -0.01572176 -0.0018453993
000060 0d ee a6 bb 22 18 28 3d 22 79 72 bb c7 23 b5 ba
       -0.005094296 0.04103864 -0.003699847 -0.0013819867
000070 41 d1 a4 3c b7 9e a2 3c 8d 61 97 b9 0f c6 8e bc
       0.020119311 0.019851072 -0.00028873645 -0.017428426

net.2.weight f4 [32, 32]
000000 59 cd c5 3e f4 88 9e 3d 44 91 20 be dd a5 9d 3e
       0.3863323 0.077409655 -0.15680414 0.30790606
000010 34 6e b5 3d ca 82 ce 3e 93 db 82 3d f4 cb 2c be
       0.0885891 0.4033416 0.06389537 -0.16874677
000020 ab a6 04 3e f0 f6 05 be 7f 24 54 3e 41 dd e3 3e
       0.12954204 -0.1308248 0.20717047 0.4450474
000030 e5 02 93 3e 8e 01 70 be c6 93 92 3e 65 29 cf 3d
       0.28713146 -0.23438093 0.28628367 0.10115317
000040 29 ac 80 3e 2d 3f a5 be df 59 fe be c2 c7 52 be
       0.25131348 -0.32274762 -0.4967794 -0.20584014
000050 4f 34 c4 be 68 21 dc 3e e1 d7 1e 3e be 70 50 3e
       -0.38321158 0.42994237 0.15512039 0.20355508
000060 67 2a 2d 3e 26 a2 b5 b9 50 25 d1 3e 16 86 b5 be
       0.16910706 -0.0003464382 0.4084878 -0.35453862
000070 e5 e3 9c 3c a0 82 ae be 79 63 19 3e 8e 2e 2c be
       0.019151637 -0.34084034 0.14979352 -0.16814634
000080 1e f7 1d 3e f6 cc dd bd 34 5a d8 3e 3f 1a 9c be
       0.15426299 -0.10830109 0.4225632 -0.30488774
000090 93 36 9c be e4 f7 9b be 8d af eb 3e eb 71 2c 3e
       -0.30510387 -0.30462563 0.46032372 0.16840331
0000a0 e4 3e fa 3e 62 ab d6 be a2 32 02 bf 63 5c ce be
       0.48876107 -0.4192763 -0.5085851 -0.4030486
0000b0 a0 2a b1 be db 83 56 3e 39 02 39 3e 7a bd dc 3e
       -0.34602833 0.20948736 0.18067254 0.4311331
0000c0 14 4c 88 be b9 ba b2 be 5c a7 8b 3e 44 b1 53 be
       -0.26620543 -0.34908083 0.27276123 -0.2067309
0000d0 fc d1 9f 3e 7a ad e5 bd 7f 30 96 3e 49 38 cc be
       0.31214893 -0.11214729 0.29333875 -0.39886692
0000e0 14 a1 82 be fa d1 22 3e d2 e0 e0 3d 62 ea 02 be
       -0.25513518 0.15900412 0.10980381 -0.12784722
0000f0 ca 31 9e 3e 0e 04 b3 3e af ae be be 89 5d 8a be
       0.3089736 0.3496403 -0.37242648 -0.27024487
000100 da cd e2 3e db f2 47 be 7c ad 11 be 7d f1 03 bf
       0.44297677 -0.19526236 -0.14226335 -0.51540357
000110 ad df 81 be ee 12 ba 3d 4a b2 12 bd e8 6f cc be
       -0.25365964 0.09085642 -0.03581456 -0.39929128
000120 2d 8e 2c bc ad af a5 be cf 49 e9 be 8b 6c a2 be
       -0.010531944 -0.32360592 -0.45564124 -0.31723437
000130 83 7e f1 be fe 2b b9 be 1f ad f4 3e 52 f6 05 3e
       -0.47166833 -0.36166376 0.4778833 0.13082245
000140 29 04 08 3e 85 6b 03 bf 0c e0 9a be f7 01 55 be
       0.13282837 -0.51335937 -0.3024906 -0.20801531
000150 12 36 e6 3d a7 6f d2 be 0a 09 3e be 07 34 aa be
       0.11240782 -0.4110081 -0.18558136 -0.3324282
000160 97 7b d1 3c 99 94 20 be b0 6f 28 3b 9b 63 a2 be
       0.025571628 -0.15681686 0.0025701337 -0.31716618
000170 ee 42 c3 be 9d bf 8d be 5f 82 49 be fd 6e c2 be
       -0.38137 -0.27685252 -0.19678639 -0.37975302
000180 e7 ff de 3e 38 d5 bf bd 3f 5f db 3e 92 5e 2a 3e
       0.43554613 -0.0936684 0.42846105 0.16637638
000190 99 ab e2 be 22 c8 b9 3e 67 e1 18 be 7a 98 3f be
       -0.44271544 0.36285502 -0.14929734 -0.18710509
0001a0 a0 04 d5 be 46 e2 03 bf 53 3e 1d 3e 23 4c d1 bd
       -0.4160509 -0.5151714 0.15355806 -0.102196
0001b0 c4 4a 53 3e 07 16 d2 be db 9b c6 3e cb 1d c2 be
       0.2063399 -0.4103243 0.38790783 -0.37913355
0001c0 e4 ca a4 bd 7b 8f ed 3d ad 37 82 3e 3f 48 d8 3e
       -0.08046511 0.11599632 0.25433102 0.4224262
0001d0 bd 6a e9 3e 56 64 cf be 0d 8f f3 3d f7 70 58 be
       0.45589247 -0.40506238 0.11892519 -0.21136843
0001e0 0f 52 82 bd d0 35 c8 be 7d b0 e8 3e 81 0e c4 be
       -0.06363308 -0.39103556 0.4544715 -0.38292316
0001f0 83 70 8e 3e 8e 30 30 3e 37 87 31 3e 1b 2c 91 be
       0.27820215 0.17206022 0.17336737 -0.28353962
000200 e6 41 e8 3e 37 39 d1 3d 41 8a 8d 3d 88 53 eb be
       0.45362777 0.10215991 0.069111355 -0.45962167
000210 a8 45 5e 3e 8b 1a 9c bd 02 1a 66 be 1f b3 db 3e
       0.21706259 -0.0762225 -0.22470859 0.42910096
000220 09 0a d5 3d 3b 7c 8b be 9a 49 89 be c0 99 c6 bc
       0.10402305 -0.27243218 -0.26813966 -0.024243236
000230 2d a6 8c 3e 63 56 07 be 23 67 99 be 27 5c 25 be
       0.27470532 -0.13216548 -0.299615 -0.16148435
000240 f3 84 c8 be 35 d7 38 3e fb 8d ce 3e 1b d2 f7 be
       -0.39163932 0.18050845 0.40342698 -0.48402485
000250 28 16 02 3e a3 66 93 3e 39 b0 cc 3d cd 08 44 be
       0.12703764 0.28789243 0.09994549 -0.19143982
000260 c3 78 8d 3e 92 8c 8d 3e 04 e7 47 3e 8c 33 a4 bd
       0.27631196 0.2764631 0.19521719 -0.08017644
000270 c5 84 0a be fd 49 83 3d 3b 69 cc bd b9 af 11 be
       -0.1352721 0.064105965 -0.099810086 -0.14227189
000280 46 9e a0 3e 6d 72 da 3e 2e 61 f8 bc 06 46 00 be
       0.31370753 0.42665425 -0.030319776 -0.12526712
000290 74 dd e7 3c 81 0d 73 bd a9 0a 0e 3e f2 7f 03 3e
       0.02830384 -0.05933905 0.13871254 0.12841776
0002a0 f7 22 f3 be 87 96 33 be 63 23 d6 3e e0 83 32 3e
       -0.47487614 -0.1753789 0.41823873 0.17433119
0002b0 8b dd 1b bd 49 d6 aa be 19 f3 a7 be d3 24 ed be
       -0.038053077 -0.33366612 -0.32802656 -0.46317157
0002c0 7f f7 36 be 62 92 19 3e 34 ce ae 3e 86 16 5d 3e
       -0.1786785 0.14997247 0.34141695 0.21590623
0002d0 dc c1 de be 1d 82 9e be 0a 1f 82 bd 57 c0 f5 3e
       -0.43507278 -0.30958644 -0.063535765 0.47998306
0002e0 65 54 b0 3d 54 68 ee bd 91 67 6b 3e 5d 5b 38 be
       0.08609847 -0.11640993 0.22988726 -0.18003602
0002f0 77 cb be be 29 04 c4 3e 93 1b 79 be b2 7e b9 bd
       -0.37264606 0.38284424 -0.24326925 -0.09057368
000300 b4 97 03 bf d2 96 ab 3e fe 22 c9 3e f4 d4 37 3e
       -0.51403356 0.33513504 0.3928451 0.17952329
000310 c0 ee b2 be fa 47 03 bf 58 f9 d0 be 8f 93 bf 3e
       -0.34947777 -0.512817 -0.40815234 0.37417266
000320 fb 39 74 3e 0f 21 df 3e 22 8a 85 3e 32 a5 f8 3d
       0.23850243 0.4357991 0.2608195 0.121408835
000330 82 fd 3b bc 18 5d ca be 3c 25 e3 be af 78 f4 be
       -0.011474015 -0.3952415 -0.44364345 -0.47748324
000340 1d 43 4f 3e 5b 85 83 be a5 24 c5 bd 5a 93 99 be
       0.20240445 -0.2568768 -0.0962613 -0.29995233
000350 a6 68 b1 bd dd 63 b8 be ae 83 a7 be 7e bb 26 3e
       -0.08662538 -0.3601369 -0.3271765 0.1628246
000360 68 a1 14 be 48 9f a4 3e 15 0c 21 be 6c 5d bc be
       -0.14514697 0.32152772 -0.15727265 -0.36790025
000370 8f e4 ce bd e2 9c 76 be 64 89 26 be 4b 69 f5 be
       -0.10102188 -0.24083284 -0.16263348 -0.47931895
000380 b7 1c 97 3e a0 2b b1 be 40 e8 80 3e ba c4 76 3e
       0.29514095 -0.34603596 0.25177193 0.24098483
000390 1e 4c b8 3e 48 ec c5 be ce b9 b6 3e 15 fb 6c be
       0.35995573 -0.3865683 0.35688633 -0.23142655
0003a0 d2 b7 4b 3e 75 86 f0 3e 22 dc 7e bd 6a 82 5c 3b
       0.1989434 0.46977583 -0.062221654 0.0033647069
0003b0 cc 18 db bd a1 74 d7 be 4b f3 82 3e d4 a2 04 bf
       -0.10698089 -0.42081168 0.25576243 -0.51810956
0003c0 9d 7e a7 3e 4b a7 c6 3e 65 80 f1 3e 58 c9 ea bd
       0.32713786 0.3879951 0.4716827 -0.114641845
0003d0 45 55 dc be d3 5e cc 3d 3f 22 8b 3e 19 c5 fe be
       -0.43033805 0.09979024 0.27174565 -0.4975975
0003e0 cb de 00 be df d0 a2 be e2 20 56 bd 99 01 86 be
       -0.12584989 -0.3179998 -0.052277453 -0.26173094
0003f0 fd 2e 4f be d9 c7 2f be 0e 6c f3 be 05 7c d1 3e
       -0.20232768 -0.1716608 -0.47543377 0.40914932

net.2.bias f4 [32]
000000 a5 11 0b 3b 99 cb 12 3d 17 81 67 bc d4 0f 5f 3c
       0.0021220234 0.035838697 -0.0141298985 0.013614614
000010 db 35 18 ba a2 3d c6 bc 76 bd 75 ba 7b 8a d2 bc
       -0.0005806365 -0.02419931 -0.000937424 -0.025700798
000020 a1 62 4d 3b 28 7d f8 bb 85 74 3f 3c 22 30 61 3c
       0.0031339305 -0.007583279 0.011685495 0.013744386
000030 c1 a4 b5 3c 03 7f 10 bc 7e 39 10 3c 6f 67 04 bc
       0.022173287 -0.008819344 0.00880277 -0.008081301
000040 76 64 1f bd d5 4a 59 bc ed 06 85 3c 28 33 89 bb
       -0.038914166 -0.01326247 0.016238654 -0.0041870065
000050 97 a9 10 bc 35 18 ba 3b 47 ec 24 3c 4e 66 55 3c
       -0.008829496 0.0056791552 0.0100660985 0.01302488
000060 6f 6f 74 3c b4 5f 35 bb 0e 18 f8 3b 98 b9 e5 ba
       0.014919146 -0.0027675452 0.007571227 -0.0017526625
000070 1c 07 d0 bb 60 e7 f7 3b b8 25 71 bc 9f 68 e4 bb
       -0.0063485038 0.007565424 -0.0147184655 -0.0069704796
