models/SIHCRDNet.pt (torch, 74073 bytes, 36 tensors)

net.0.weight f4 [32, 1]
000000 6c 19 02 3f 90 80 27 3f d3 20 33 be e1 45 26 3f
       0.5082004 0.65430546 -0.1749299 0.64950377
000010 fe 88 fa bd ff ff f7 3d d3 d1 d2 be ac 70 e2 3e
       -0.122331604 0.12109374 -0.41175708 0.44226587
000020 e5 17 2a 3f 66 ab 09 bf a1 f2 1b 3f 09 b2 00 3e
       0.6644271 -0.5377716 0.609171 0.12567915
000030 8d 32 02 3f 4d c5 9a 3d 15 63 aa 3e 66 4e 0f bd
       0.50858384 0.075571634 0.3327872 -0.034986876
000040 c0 fd 06 3f e2 29 5d 3d 7d 49 a4 be bd f8 5b 3e
       0.5273094 0.05399502 -0.32087317 0.21481605
000050 da b8 ae be 90 84 6d bd ab 77 a7 be 7e 84 f0 3e
       -0.34125406 -0.05798775 -0.32708487 0.46976084
000060 ee f0 11 bf e6 03 af be 28 55 33 be ef 00 da be
       -0.57008255 -0.34182662 -0.17512953 -0.42578837
000070 26 3f 0a 3c 12 92 2e bf c2 a6 26 3f 56 82 1c bf
       0.008437907 -0.68191636 0.650982 -0.61136377

net.0.bias f4 [32]
000000 8a 50 97 3c f7 23 31 3d 9a 42 96 bc 68 87 f6 bb
       0.018471021 0.04324719 -0.018342305 -0.007523466
000010 a2 c9 f7 bc 70 5d 06 3d 2a 36 eb 3b eb 71 e0 3c
       -0.030247513 0.032803953 0.0071780877 0.02739807
000020 ca 3e ef 3b 1f 79 84 bc 37 2b a4 3c 46 e5 d0 3b
       0.007301186 -0.016171036 0.020040138 0.006374988
000030 84 74 18 bd 2f 5b ed bb 95 1e e9 3d 1d 1d eb 3d
       -0.037220493 -0.007243536 0.11382786 0.11480162
000040 c8 8b 8c ba 23 dd 44 bd 2c 79 b3 bc 78 06 4e bc
       -0.001072281 -0.048062455 -0.021908365 -0.012574784
000050 b3 9c c3 bb 10 18 e8 3d b3 5e 6c bd 80 f5 82 ba
       -0.0059696077 0.113327146 -0.0577075 -0.0009991378
000060 d3 ae 8a bc 32 ef 7f 3d d4 7e ec 3c 68 46 6b bd
       -0.016929066 0.062483974 0.02886907 -0.05744019
000070 66 e0 96 bd be 4c 98 3c 98 0f 3f 3c f7 8f 81 bc
       -0.07367019 0.018591281 0.011661433 -0.015815718

net.2.weight f4 [32, 32]
000000 fb 93 c5 3e 5d 6f 9e 3d aa 89 20 be 67 4c 9d 3e
       0.38589463 0.077360846 -0.15677515 0.30722353
000010 cb 57 b3 3d 2a b9 cf 3e b0 d2 84 3d 52 e5 2c be
       0.087569796 0.40570956 0.06485498 -0.16884354
000020 9d 11 04 3e 9a aa 05 be 76 fd 53 3e ee de e4 3e
       0.12897344 -0.1305336 0.20702156 0.44701332
000030 37 a8 92 3e a9 d2 6e be 84 44 93 3e 97 39 d8 3d
       0.28643963 -0.23322548 0.2876321 0.105578594
000040 ed 74 80 3e 37 06 a6 be e1 6c fe be 06 97 52 be
       0.25089207 -0.32426617 -0.49692443 -0.20565423
000050 b1 3f c4 be 88 ae de 3e 2d cc 1d 3e e7 2f 50 3e
       -0.38329843 0.43492532 0.15409918 0.20330773
000060 df 33 2d 3e d9 45 6d 3a f7 85 d1 3e 88 e0 b5 be
       0.16914319 0.00090512406 0.4092252 -0.35522866
000070 77 df a3 3c 98 1c ae be ca 1f 19 3e 41 03 2c be
       0.020004017 -0.3400619 0.14953533 -0.16798116
000080 8e c3 34 3e da 9d ae bd 9e 92 ce 3e 2a 35 90 be
       0.17652723 -0.085262015 0.40346235 -0.2816556
000090 b8 e8 a5 be 8b b8 91 be eb c3 e0 3e b4 89 43 3e
       -0.32404113 -0.28461108 0.43899474 0.19095498
0000a0 75 0a 03 3f d5 a2 e2 be 1b 91 f8 be 63 ac c1 be
       0.5118783 -0.44264856 -0.48548207 -0.37826833
0000b0 e9 11 a5 be a2 00 69 3e 6a 64 4e 3e ec 34 d1 3e
       -0.32240227 0.22754148 0.20155492 0.4086069
0000c0 fe c8 78 be 79 d6 a5 be 4c a1 80 3e b4 6a 3d be
       -0.24295422 -0.32390192 0.2512306 -0.18497735
0000d0 c3 16 94 3e 54 97 10 be c9 e4 8a 3e f5 44 c0 be
       0.28923616 -0.14120227 0.27127674 -0.3755261
0000e0 b9 88 8e be 72 da 0a 3e df a3 b2 3d 21 07 1a be
       -0.27838686 0.13559893 0.08722662 -0.15041782
0000f0 82 88 a5 3e 42 2d a7 3e 29 e9 b2 be b4 27 96 be
       0.3233071 0.32651716 -0.34943512 -0.29327166
000100 d9 11 ec 3e 40 3f 35 be 01 0b 13 be f9 5a ff be
       0.46107367 -0.17699909 -0.14359666 -0.49874094
000110 67 22 87 be fc 6d df 3d 5f f7 37 bd bc d8 c3 be
       -0.26393434 0.1090965 -0.044913646 -0.38251293
000120 87 e6 e4 3b 45 8a af be d9 41 e0 be 52 c3 98 be
       0.006985489 -0.3428518 -0.43800238 -0.29836518
000130 17 5c e8 be 1f bd a9 be 80 c2 f8 3e 98 eb c8 3d
       -0.4538276 -0.331521 0.48585892 0.09810561
000140 90 95 1a 3e f8 a2 fe be d2 6a 9c be 3d 7b 5b be
       0.15096116 -0.4973371 -0.30550247 -0.2143373
000150 86 87 df 3d e5 26 fb be 51 9c 3b be ff 41 a1 be
       0.10914521 -0.49053112 -0.18321349 -0.31495664
000160 1b 3a e9 3b cc 79 1e be c5 af 92 3c 1d 1b ab be
       0.0071175224 -0.1547615 0.01790608 -0.33419123
000170 54 a3 d6 be fd eb 95 be 59 e1 37 be 5d 96 cb be
       -0.41921484 -0.29281607 -0.17957057 -0.39763156
000180 ad 5d d7 3e 17 7c db bd 12 e3 db 3e 57 98 1d 3e
       0.42063656 -0.10717028 0.42946678 0.15390144
000190 ad ef e7 be 2e 5a c2 3e a1 0d 04 be 0e 39 53 be
       -0.45300046 0.37959427 -0.12895824 -0.20627233
0001a0 8d 9a db be 67 24 00 bf 51 88 0f 3e 6f e4 9a bd
       -0.4289135 -0.50055546 0.14016844 -0.075631015
0001b0 55 ea 43 3e f4 1d c1 be 8b b5 bb 3e dc 7d c6 be
       0.1913236 -0.37718165 0.36661944 -0.38767898
0001c0 2d a8 c2 bd 9b 4b 07 3e 47 de 8c 3e 4c 3e d2 3e
       -0.09504733 0.13212435 0.27513334 0.41063154
0001d0 9d 3e f4 3e 0c 72 f3 be f6 38 10 3e 3d 47 6a be
       0.4770402 -0.47547948 0.14084229 -0.22878738
0001e0 6c 90 49 bd 6d e5 bd be e7 12 f0 3e b7 31 ba be
       -0.049209997 -0.370891 0.4688942 -0.36366054
0001f0 82 bb 93 3e 78 b9 3c 3e 69 1a 24 3e 10 38 8a be
       0.28853995 0.18430126 0.160257 -0.26995897
000200 0b 2f f1 3e f2 76 f2 3d d0 78 3c 3d 3c 19 e3 be
       0.47106203 0.11839093 0.046013653 -0.4435519
000210 3e 53 43 3e da 4c 56 bd af 47 7a be f4 03 e5 3e
       0.19074723 -0.052319385 -0.24441408 0.44729578
000220 58 36 f6 3d b1 e0 93 be 8d fa 80 be 44 9a e6 3a
       0.12022084 -0.28882363 -0.25191155 0.0017593582
000230 60 88 95 3e 7c 31 cc bd 2e 3e 8f be f8 20 4e be
       0.29205608 -0.09970376 -0.27977127 -0.20129764
000240 d1 8f bf be 78 77 57 3e 68 6c c4 3e e7 d3 ed be
       -0.3741441 0.21041667 0.38363957 -0.4645073
000250 9e 76 dc 3d 96 20 76 3e 2b c9 a5 3d 1d f2 31 be
       0.10764812 0.24035868 0.0809501 -0.17377515
000260 ce e7 84 3e aa 6f 83 3e 35 29 33 3e 29 e0 c9 bd
       0.25958103 0.2567113 0.17496188 -0.09857208
000270 44 56 26 be b5 b5 45 3d dc 9d ab bd c8 4e 22 be
       -0.16243845 0.048268992 -0.08379719 -0.15850365
000280 e2 61 a3 3e 11 14 e0 3e a3 af 06 bd cb e0 eb bd
       0.31910616 0.4376531 -0.032882344 -0.11517485
000290 99 8c e9 3c ff 32 5c bd a3 30 18 3e 9b be 05 3e
       0.028509425 -0.05375957 0.14862303 0.13060991
0002a0 69 53 ee be 18 1b 3c be 15 49 db 3e db 5a 31 3e
       -0.46548012 -0.1836971 0.42829195 0.17319815
0002b0 07 56 0a bd b8 37 ae be 39 06 a8 be ad 9f cb be
       -0.03377345 -0.34026885 -0.32817248 -0.3977026
0002c0 91 5a 31 be 7c 9a 11 3e 6d 86 b0 3e 56 60 62 3e
       -0.17319705 0.14219087 0.3447756 0.22107062
0002d0 8c 50 de be 2f 5b 7a be f2 3f 83 bd 91 f2 f7 3e
       -0.43420827 -0.24448846 -0.06408681 0.4842725
0002e0 67 22 9f 3d b3 da de bd 42 08 68 3e 83 c0 3c be
       0.077702336 -0.10881557 0.226594 -0.18432812
0002f0 29 55 e8 be bc ea be 3e fe 8d 6e be c1 7e cd bd
       -0.45377472 0.37288463 -0.23296353 -0.10033942
000300 cd b1 03 bf b6 a6 ab 3e 7e e9 cf 3e 37 42 38 3e
       -0.5144318 0.33525628 0.40607828 0.17994009
000310 c3 5f ad be df 30 05 bf 7d cd cf be 88 b5 be 3e
       -0.33862123 -0.52027696 -0.40586463 0.37247872
000320 88 99 74 3e 27 4c df 3e b1 9d 85 3e 48 4b e7 3d
       0.23886693 0.43612787 0.26096871 0.11293656
000330 73 c8 3f bc 16 2c cd be 97 3b e5 be 67 3f f4 be
       -0.011705506 -0.40072697 -0.44772026 -0.47704622
000340 5a 01 4f 3e f9 3a 84 be 8b 6c bc bd d8 bd 9f be
       0.2021536 -0.25826243 -0.092003904 -0.31199527
000350 13 5b a9 bd 31 21 b4 be ed b3 a4 be 80 c5 25 3e
       -0.08269324 -0.35181573 -0.32168522 0.16188622
000360 37 72 14 be 67 bb a6 3e 96 62 13 be 41 83 bb be
       -0.14496695 0.32564852 -0.14393076 -0.36623576
000370 f4 8f 8c bd 88 56 77 be 30 38 26 be b8 74 f5 be
       -0.068633944 -0.24154103 -0.16232371 -0.47940612
000380 1b 07 92 3e f2 ad b6 be 6d cb 80 3e 5a e5 6b 3e
       0.28521046 -0.35679585 0.25155202 0.2303671
000390 9d 30 b8 3e 36 ca c5 be 1b 98 bb 3e af 34 77 be
       0.3597459 -0.38630837 0.36639485 -0.24141191
0003a0 c3 b2 40 3e 4f 01 f6 3e 10 67 95 bd a1 24 b4 3a
       0.18818192 0.48047873 -0.07295048 0.0013743826
0003b0 b4 a3 f1 bd 70 22 d6 be 10 db 7b 3e 9c 42 07 bf
       -0.11798802 -0.4182315 0.24595284 -0.5283601
0003c0 a6 f7 a1 3e df 09 c6 3e 98 ae f6 3e c7 4b f1 bd
       0.31634253 0.38679406 0.4818008 -0.117820315
0003d0 b8 f5 d6 be bf 35 cb 3d e5 e9 8f 3e 82 1b 02 bf
       -0.41984344 0.09922361 0.28108135 -0.50823224
0003e0 df 83 eb bd 5d 22 9d be e0 a1 46 bd b4 97 80 be
       -0.11499762 -0.3069028 -0.04849422 -0.2511574
0003f0 25 83 29 be 52 c5 24 be 96 df f8 be f7 ea d6 3e
       -0.16553934 -0.16090897 -0.48608083 0.4197614

net.2.bias f4 [32]
000000 50 5a 54 3d 1a b4 34 3d d6 72 a6 3c 0a 8b 91 3b
       0.05184394 0.04411707 0.02031843 0.0044416236
000010 5b 83 03 3c 8f 87 1b 3d 8e 22 c7 b9 06 f7 55 bc
       0.008026923 0.037971076 -0.00037981983 -0.013059383
000020 15 ad b0 3c 0f 7f 86 3c 2b c5 2d 3d 32 76 19 3d
       0.021566907 0.016418008 0.042424362 0.037466235
000030 80 5e 58 bc e9 c8 e3 3c e8 1a 9a 3c 2a 2f d9 bb
       -0.013206124 0.027805762 0.018811658 -0.006627937
000040 c0 25 0f bd 3b 56 35 bc b9 96 e3 38 ab d4 e7 bc
       -0.03494811 -0.011067922 0.00010852278 -0.02829965
000050 c7 7e ec ba 12 04 bd bc d9 e5 3b 3c 4a f2 b2 3b
       -0.0018043154 -0.02307323 0.011468374 0.005461012
000060 e4 98 42 3d 94 68 09 3a 35 f5 7f bc 94 88 e1 bb
       0.04750909 0.00052417186 -0.015622427 -0.0068827365
000070 28 c5 db bb 87 dc f0 3d 0a 7f 30 bc 4d b9 01 bc
       -0.0067068525 0.11760812 -0.010772476 -0.007917714

net.4.weight f4 [32, 32]
000000 3d 9d 9d bd f8 ef 53 be 25 c0 3a be 07 ce dc be
       -0.076960064 -0.2069701 -0.1823736 -0.43125936
000010 c4 58 ce be 7c 96 95 3e b7 7f dd 3e 9e cb fb 3e
       -0.40302098 0.29216373 0.432615 0.49178785
000020 ee 8d b8 be ce 84 8d 3e 62 32 a3 be 9e ac 99 3e
       -0.36045784 0.27640384 -0.31874377 0.3001451
000030 ae 57 c9 3e 93 b3 cc 3e 8c c9 b9 3e bb 17 a6 3e
       0.39324707 0.39980754 0.3628658 0.3243998
000040 ab 22 e1 3a 31 9f 57 3e 58 24 58 be 58 ba 5e 3e
       0.001717647 0.2105682 -0.21107614 0.21750772
000050 1e 38 2a be d8 c2 79 bc 69 4c 1c bf ff dc 08 be
       -0.1662297 -0.015244208 -0.6105409 -0.13365553
000060 7d 37 8d be 31 fd 2f be 46 f2 b1 be 80 f8 e7 be
       -0.27581397 -0.17186429 -0.34755152 -0.45306778
000070 c1 f2 1b 3d d7 f9 a7 3e f1 c1 f0 3e b6 8d 8f 3e
       0.038073305 0.328078 0.47022966 0.28037804
000080 91 3f 8a be a6 17 fd be 02 54 80 3e 93 a7 89 3e
       -0.27001622 -0.49432105 0.25064093 0.2688566
000090 45 31 d4 be 5d 6a 20 3e 98 58 d7 3e bb b1 2e 3d
       -0.4144384 0.15665574 0.4205978 0.042649966
0000a0 16 75 98 be 90 08 e2 3e bb d0 4c 3e f2 ec a4 3e
       -0.2977683 0.44147158 0.200015 0.32212025
0000b0 0a 5c d1 be a7 1c 9f 3e ab d0 b9 be 06 ac 04 3f
       -0.40890533 0.31076548 -0.36292014 0.51824987
0000c0 23 04 65 be 38 2c b9 3e d1 76 e8 3d 11 e3 06 3e
       -0.2236486 0.3616655 0.113507874 0.13172556
0000d0 49 ea e8 bd c5 5f 4b 3e ae 85 3d be 6e 17 d9 be
       -0.11372811 0.19860752 -0.18508026 -0.42400688
0000e0 d7 b7 4f be aa c4 c2 3e 18 77 04 be c0 1a 2f 3e
       -0.20284973 0.38040668 -0.12936056 0.17100048
0000f0 ff 65 33 be 71 44 b9 3e 8f a0 a2 3e ce 80 33 3e
       -0.17519377 0.3618503 0.3176312 0.17529604
000100 9e 9d 70 be bf 37 de be a4 c5 99 bd e7 96 8f be
       -0.23497626 -0.43401906 -0.075084 -0.28044817
000110 75 6c cd 3e d0 75 f6 be 40 93 76 3e 5b 16 fb 3e
       0.4012181 -0.4813676 0.24079609 0.49040493
000120 c1 af 70 3e 00 fe 14 3e 1b 9f f2 be 60 66 02 3f
       0.23504545 0.14550018 -0.47387013 0.5093746
000130 aa b6 ac bd dd c0 fd be 6f 9c 05 3f b9 d9 67 be
       -0.08433278 -0.49561206 0.52191824 -0.22641648
000140 46 c8 50 bc ef cc e9 3e 16 21 b1 be dd 96 b4 be
       -0.012743061 0.45664164 -0.34595555 -0.3527135
000150 e5 90 d7 3d c7 e2 48 bd 66 5c 07 3e 32 76 f3 be
       0.10525683 -0.049044397 0.13218841 -0.47551113
000160 31 fd 25 3d 51 98 50 be ba b7 82 be d0 0c f8 be
       0.040524665 -0.20370604 -0.25530797 -0.48447275
000170 23 74 81 3e 6b ef ec 3d dc 71 e6 be f5 1d da 3e
       0.25283918 0.11569103 -0.45008743 0.4260098
000180 21 e6 19 3e 52 36 d0 3d 99 97 b5 be ab 17 92 3d
       0.15029193 0.10166611 -0.35467222 0.071334206
000190 cc 34 fc 3e cf cc ae 3e 1d 73 d0 be 2f e3 ef 3e
       0.4925903 0.34140632 -0.40712824 0.46853015
0001a0 29 7c 36 3d bf 6e 5f 3e 40 03 c8 3e 04 a7 dc 3e
       0.044552002 0.2181959 0.3906498 0.43096173
0001b0 7c 03 bd be 0c aa e6 3e db e8 b3 be 4f 57 2e 3d
       -0.3691672 0.4505161 -0.35138592 0.042563733
0001c0 78 1d b9 be 8d 4e 8c bc 30 1f a0 bc e4 fe 6b bd
       -0.36155295 -0.0171273 -0.019546121 -0.05761613
0001d0 de 37 9c bd 29 19 10 3d 36 d3 fc 3e e4 95 8d 3e
       -0.07627843 0.035180245 0.4937989 0.2765342
0001e0 ee 2a 90 3e 80 7f 43 3e 8b 8a c2 3e 24 de 95 bc
       0.28157753 0.19091606 0.37996325 -0.018294401
0001f0 94 bc 3f 3d af bd d4 3d 7c 28 e1 be b2 be dd be
       0.0468107 0.10387742 -0.439762 -0.4330955
000200 9d b8 77 3d 37 d0 4b be 2c fe 81 bc 25 a3 f0 bd
       0.060478795 -0.19903646 -0.015868269 -0.11749867
000210 d2 df 9f 3d 5c c3 a9 3e 9b 32 30 be 9e ea d0 3e
       0.07806362 0.3315686 -0.17206804 0.40804
000220 b2 7e ce 3e 98 79 ce be 00 95 c9 be 31 52 d3 be
       0.40331036 -0.40327144 -0.3937149 -0.41273645
000230 54 a7 96 be c1 a3 4b be ea ce 1b bd f5 59 fe bd
       -0.29424536 -0.19886686 -0.038039126 -0.12419502
000240 b6 e5 84 be ec 84 19 be 18 f5 38 be 1e 92 01 3f
       -0.25956506 -0.14992112 -0.18062246 0.5061358
000250 75 9f 3e be 6e 3a bb be 26 fa 7f 3e 3c 69 e8 bc
       -0.18615516 -0.36568016 0.24997768 -0.028370492
000260 9f 23 c7 3e 61 3b a3 3e ca 07 f2 3e cd 4e bf be
       0.38894364 0.3188124 0.47271568 -0.37364808
000270 61 fd a7 3e 45 03 dc 3e a9 f2 80 be a6 dc ee 3e
       0.328105 0.42971244 -0.25185135 0.46652716
000280 27 4f bf 3e 2c e2 87 3c 9a a8 7d 3e b5 24 40 be
       0.37365076 0.01658734 0.24771348 -0.18764003
000290 85 7c de be 93 a0 fe 3d 0e 80 11 3e 2f 9a a5 be
       -0.43454376 0.12432971 0.14209005 -0.32344195
0002a0 21 a5 84 3e bd 53 d7 be 8d 22 db 3e ee 88 f7 3e
       0.25907233 -0.42056075 0.42799798 0.48346657
0002b0 69 dd 00 3e a6 0e 9e be c2 0a 73 3e 45 1a c9 3d
       0.12584461 -0.3087055 0.23734573 0.09819464
0002c0 70 d8 02 3e 58 8c 51 3e ec ad c2 3e 2f 3f 6d be
       0.12777877 0.20463693 0.38023317 -0.23168634
0002d0 cf 85 06 be bb 32 03 3e 20 55 4e 3d 89 54 d7 3e
       -0.13136981 0.12812321 0.05037415 0.42056683
0002e0 61 75 8e be 8c ca f5 bc 07 dd aa 3d b8 64 00 be
       -0.27823928 -0.030003808 0.08342939 -0.12538421
0002f0 fc 71 b8 3e 16 66 3b 3d f7 66 eb be d1 a1 72 bd
       0.36024463 0.045751654 -0.45976993 -0.05923635
000300 3a ce 7a be 60 0e 71 3d 20 91 86 bd ef 7f 03 bf
       -0.24492732 0.0588516 -0.06570649 -0.51367086
000310 61 2f ad bd d2 41 5c bd e6 b5 23 be 12 92 f5 3e
       -0.084563024 -0.05377371 -0.15987357 0.47963005
000320 2e 71 c9 bd 26 b0 af 3e c0 7f ec 3d 4f 1e e2 be
       -0.098360404 0.34314078 0.11547804 -0.4416375
000330 2a 59 1e 3e 22 12 de 3e c2 fe af be f1 f0 a2 be
       0.15463701 0.4337321 -0.34374052 -0.3182445
000340 8f 87 f9 3e 45 5d d8 3e 25 e0 95 be 27 ac 97 3e
       0.48736235 0.4225866 -0.2927257 0.2962353
000350 bb 03 9f bd 8a c2 03 bf c7 d1 ce 3c c9 0e 2b 3e
       -0.077643834 -0.5146872 0.025246514 0.16704859
000360 04 a5 29 be e4 4e 2a 3e c8 23 e5 be 8d 49 ba 3e
       -0.16566855 0.16631657 -0.4475386 0.3638424
000370 ee af e4 3e d1 d3 8a 3e 32 dd ca 3d 66 07 25 3e
       0.44665474 0.27114728 0.09905471 0.16116104
000380 b1 13 be be 50 37 ee bd ac 2c 94 be d0 ef a4 be
       -0.37124398 -0.11631644 -0.28940332 -0.32214212
000390 cf db ac be d1 c0 89 3e d6 4b ad 3e e0 63 e3 be
       -0.3376145 0.2690492 0.3384692 -0.44412136
0003a0 bf d6 2f 3e 4f 3b 4e 3e 28 ed e7 3e 9e 36 8c 3e
       0.17171763 0.20139812 0.45298123 0.2738542
0003b0 2f ab 27 3f b2 a7 19 be bb 89 ac 3e 07 45 dc 3e
       0.6549558 -0.15005377 0.3369883 0.43021414
0003c0 84 c6 f6 be 1e 90 f5 be ed 13 b9 bc 19 26 99 3e
       -0.4819833 -0.47961515 -0.02259251 0.2991188
0003d0 1e f1 87 be e8 4a 3b 3d 6a bc d7 bd 09 e2 35 3e
       -0.26551145 0.045725733 -0.10533984 0.17762007
0003e0 89 70 8d be c7 14 97 3e 7d f8 b3 3e 46 99 ad be
       -0.2762492 0.2950804 0.3515052 -0.33906
0003f0 fc d2 96 3c 2a 80 26 bd e9 89 32 3e 10 08 bd 3e
       0.018411152 -0.04064957 0.17435421 0.36920214

net.4.bias f4 [32]
000000 24 62 9f bb 1e eb 46 3c 24 77 c6 b9 71 14 4b 3d
       -0.004863994 0.012141017 -0.0003785427 0.04958004
000010 4e fc ac 3b 6c a1 d7 3c bb 66 29 bc 69 50 46 bb
       0.0052791005 0.02632209 -0.010339434 -0.003026033
000020 32 6e 81 bd 89 f6 1c bc 38 b3 73 3c 10 98 1d 3b
       -0.06319846 -0.009580263 0.014874272 0.0024046935
000030 dc 1d 56 3a 4d 2a e8 bc 49 cf ac bb 12 5b a7 bc
       0.00081679015 -0.028340483 -0.0052737338 -0.020429168
000040 4b b8 03 bc cc e6 ce bb 79 23 52 3c 7d c5 28 3a
       -0.008039544 -0.006314134 0.01282584 0.00064381195
000050 10 04 ba 3c 2d 05 d4 3a 10 3c 16 3c 90 70 3d ba
       0.022707015 0.0016175859 0.009169593 -0.0007226551
000060 1c 20 2d 3c c2 e1 05 bd 30 b8 95 3c 06 02 e7 bb
       0.0105667375 -0.032686003 0.018276304 -0.0070498018
000070 09 08 02 bb 88 fd 14 bc 63 f3 0b 3b 46 90 30 3c
       -0.0019841215 -0.00909365 0.0021354787 0.010776585

net.6.weight f4 [32, 32]
000000 42 f6 de be ac 30 b3 3e 7d 0e 89 bd 04 0b 99 bd
       -0.43547255 0.3499807 -0.066922165 -0.07472804
000010 d7 39 0e 3e f4 78 cb 3e 6e 59 8d be 80 d8 ab be
       0.13889252 0.39740717 -0.27607292 -0.33563614
000020 2f 53 b4 3e 98 99 04 bf 00 d0 0b 3e 57 83 8e bc
       0.35219714 -0.51796865 0.13653564 -0.017396612
000030 46 29 16 3e 8d c1 c8 3e ab 27 8b be 20 e9 7c be
       0.14664182 0.39210168 -0.27178702 -0.24698305
000040 06 75 8c 3e f7 f5 59 3e 28 d1 52 bd 49 9a e9 be
       0.27433032 0.21285234 -0.051469 -0.45625523
000050 6c eb dc 3e a7 57 ba bc 5c ca 0e be ce 56 4c be
       0.43148363 -0.022746874 -0.13944381 -0.19954988
000060 a9 d0 c1 bd 9b 4f 7c 3e e4 ce ad bd 75 90 16 3f
       -0.09463627 0.24639742 -0.08486727 0.58814174
000070 33 7c b9 bc e2 16 91 bd 7e a6 98 3e 22 e6 07 bc
       -0.02264223 -0.07084443 0.29814523 -0.008294614
000080 6b ea 44 bd 01 a3 28 3e f8 40 c6 3e ca e6 f8 3d
       -0.04807512 0.16468431 0.38721442 0.121533945
000090 fe 77 af 3e f2 20 a6 3e 78 93 1a 3e 61 e4 3c 3e
       0.34271234 0.3244701 0.15095317 0.18446495
0000a0 ba e1 1c 3e 4e 79 58 3e 7e c9 db 3e b0 73 e5 3e
       0.15320483 0.21140024 0.42927164 0.44814825
0000b0 48 dc 39 3e 5d 1d 95 bc 60 53 e8 3e b4 e1 ce be
       0.18150437 -0.018202478 0.4537611 -0.40406573
0000c0 e3 23 bb 3e 61 a5 d0 3d f5 90 a4 3e 9a 45 b3 bc
       0.36550817 0.101877935 0.32141843 -0.021883775
0000d0 e7 4b cb be 48 e2 b0 3e af 16 56 be fb 8b 0f 3e
       -0.39706346 0.3454764 -0.2090709 0.14018242
0000e0 45 ff 8f 3e 86 da f0 be ea d4 09 3d 87 0c 4b be
       0.28124443 -0.4704172 0.033650316 -0.19828998
0000f0 5a 94 bc 3e 7a dd a3 be 76 7a 9f 3e 42 8b a5 3e
       0.36831933 -0.3200491 0.31148118 0.32332808
000100 40 a5 88 3e 11 2f fb 3e 3a da b4 3d 34 fb e4 be
       0.26688576 0.49059346 0.08830686 -0.44722903
000110 08 27 be 3e ef f6 35 3d 39 90 42 3c 49 52 f5 be
       0.37139153 0.044424947 0.011875206 -0.4791434
000120 44 fe ec bd 0a fd 8b be fa 5e fc 3e 29 96 d3 3e
       -0.11571935 -0.2734149 0.4929121 0.413255
000130 41 7f c0 3e 7a 0d b4 3e 6c 69 a4 be 2b 56 63 be
       0.37597087 0.35166532 -0.3211168 -0.22200839
000140 c8 c4 4c be a7 16 08 be 44 1c ca 3e ef 13 37 3e
       -0.19996941 -0.13289891 0.3947469 0.17878698
000150 44 f7 cc 3e 10 eb a9 bc 24 ee e6 be 5d 6b 11 be
       0.400324 -0.02074197 -0.45103562 -0.14201112
000160 3d 6a b6 3e 20 d3 9e 3e 5b 55 18 3e 2f 39 06 be
       0.35627928 0.3102045 0.1487631 -0.13107751
000170 4c 77 f2 be 70 49 8b be fc 7c 89 3e f5 ca 50 be
       -0.4735664 -0.27204466 0.26853168 -0.20389922
000180 ae c8 a9 3e f4 3d ec 3d 51 d1 59 be a6 62 98 3e
       0.3316092 0.11535254 -0.21271254 0.29762763
000190 0c dc 53 be 9a b4 e8 bc 95 b0 3c be 76 e8 f7 be
       -0.2068941 -0.02840643 -0.18426736 -0.4841954
0001a0 ce 49 48 3d cb 79 a4 3e a9 29 86 be d9 ca 89 3e
       0.04889851 0.3212417 -0.2620366 0.26912573
0001b0 2c b1 f2 be 4e c5 f5 be ad 5e a4 be 97 0f 50 be
       -0.47400796 -0.48002094 -0.32103482 -0.20318447
0001c0 e3 36 a5 bd 2b 9b bc be dd d2 48 3e 17 d2 e7 be
       -0.080671094 -0.36837134 0.19611688 -0.45277473
0001d0 d6 40 02 3d 20 cb da bc ec 7f f8 3d f6 a4 08 3f
       0.031800114 -0.026708186 0.12133774 0.5337671
0001e0 9e 02 96 3e a3 b8 89 be 34 fd c8 be aa 3d 66 be
       0.29298872 -0.2689868 -0.3925568 -0.2248446
0001f0 02 20 7b be 8d aa 40 3e a1 f4 58 3c f2 89 d6 3e
       -0.24523929 0.1881506 0.013241918 0.4190212
000200 6a 1d 4e 3e f0 5c bc bd bb b2 93 3a 75 37 df 3d
       0.20128408 -0.09197414 0.0011268476 0.108992495
000210 3c 59 81 bd 21 a4 d6 3e 45 24 d0 be 6b 8a 82 3e
       -0.06315848 0.41922095 -0.4065267 0.2549623
000220 a9 da a4 be b6 38 c9 be 3c 54 cb bd c9 85 7d 3e
       -0.32198074 -0.3930108 -0.09928176 0.24758066
000230 ee 63 b7 3e 15 7f f5 3d 53 f3 1b bd 15 99 a7 bc
       0.35818428 0.119871296 -0.03807385 -0.020458737
000240 af f6 4d be 16 61 ad bd a0 f0 d9 bc a7 b8 ca 3e
       -0.20113634 -0.08465783 -0.026603997 0.39594004
000250 08 29 9e 3e ce 0b ce be 08 09 c2 ba b6 d6 a5 be
       0.3089068 -0.4024338 -0.0014803717 -0.32390374
000260 b9 8b 96 bd 75 ff d2 be 2d 3f 11 3e b4 e9 bc be
       -0.07350869 -0.41210523 0.14184256 -0.3689705
000270 bd f8 fd 3e 05 b3 c1 3e ad 34 b6 be ca c0 f9 be
       0.49603835 0.37831894 -0.35587063 -0.487799
000280 a2 81 21 3d 31 08 0e be ce bf 35 3e 05 49 b4 be
       0.039430268 -0.13870312 0.17748949 -0.3521196
000290 85 d1 45 3e 9c 33 e2 be bc 4f 89 be 95 19 88 be
       0.19318207 -0.4418 -0.26818645 -0.26582018
0002a0 30 7e 76 3e 4c 79 e2 3d c9 37 fb be 6f ce 8f be
       0.24071574 0.11058292 -0.49065998 -0.28087184
0002b0 58 85 7c be 72 a8 f1 be 3f 8a 72 3d 03 80 38 3e
       -0.24660242 -0.47198826 0.059213873 0.18017583
0002c0 b5 61 c5 bd 76 3d 95 be 68 11 58 bb 50 7a c9 be
       -0.09637777 -0.29148453 -0.003296936 -0.3935113
0002d0 78 5c 9b be ec b2 d7 bc 13 f6 ef 3e e6 b4 1e be
       -0.30343986 -0.026330434 0.46867427 -0.15498695
0002e0 2d 68 80 3e 5d 59 50 be 22 50 09 be f1 d7 f2 be
       0.2507948 -0.2034659 -0.13409474 -0.47430375
0002f0 14 fe d8 3e a1 98 fe 3e 62 20 4f bc c8 f4 a5 3e
       0.42381346 0.49725822 -0.012641998 0.32413316
000300 9b 11 d7 3e 70 e5 74 3e 4b 3c 5a 3e b3 ba f1 be
       0.4200562 0.23915648 0.21312062 -0.47212753
000310 da ea f0 be 15 3b c9 be 18 c3 23 3e 93 f1 e4 be
       -0.47054178 -0.3930289 0.15992391 -0.44715557
000320 7a 5c c6 be 48 65 8b be 95 e5 f0 be a4 a9 c6 bc
       -0.3874243 -0.2722571 -0.47050157 -0.024250813
000330 e2 8c ad 3d 71 d2 98 be 75 90 ae 3e e9 0a 4b be
       0.08474137 -0.29848054 0.34094587 -0.1982838
000340 ea 3e 14 be 93 90 b6 3e 75 3d dc 3e 09 3b ae bd
       -0.14477125 0.35657176 0.43015638 -0.08507354
000350 4f 75 c9 be f8 1b 81 be 81 e2 61 3d 6e c4 9b 3e
       -0.39347312 -0.2521665 0.05514765 0.304233
000360 a2 ca 80 3e db c8 5e be 5f c0 f9 be 0b 45 ef be
       0.25154597 -0.21756308 -0.4877958 -0.46732363
000370 2d 9f 25 be fb af 1d 3c 7a ac 63 be 61 ed cc be
       -0.16174002 0.009624477 -0.22233763 -0.40024856
000380 e8 09 12 3e 06 15 e6 be 39 1b d4 be 88 b9 d3 be
       0.14261591 -0.44937915 -0.4142702 -0.41352487
000390 be 90 11 be 67 e1 d4 3e e1 0c 71 3e 9f de de bd
       -0.14215371 0.41578218 0.23540069 -0.10882305
0003a0 30 54 b5 3d 21 e5 94 3e c4 61 f0 bc 58 83 06 bf
       0.08853948 0.2908106 -0.029343493 -0.52544165
0003b0 4c d3 8b be 9f d4 a0 be 96 db 0e bd 0e 2a 01 bf
       -0.27309644 -0.31412217 -0.034877382 -0.50454795
0003c0 ac 51 00 be f1 b8 c7 be 00 0d e7 3e 81 b8 c4 3e
       -0.12531155 -0.39008287 0.45127106 0.38422015
0003d0 39 b3 56 3e 24 62 eb 3c d0 28 51 be d3 cc 27 3e
       0.20966806 0.02873332 -0.20425725 0.16386728
0003e0 d5 b1 c5 be e1 c1 2f be 74 be c5 bd e3 1f 64 be
       -0.38612238 -0.17163803 -0.09655467 -0.22277789
0003f0 c5 82 e4 be 8e 46 73 3e 1e 76 e8 3e b9 cc 7a be
       -0.4463102 0.23757383 0.45402616 -0.24492158

net.6.bias f4 [32]
000000 4b 5c 26 bb 05 b9 97 3b 8d a8 e6 3c ae dd cc 3b
       -0.00253846 0.0046302103 0.028156543 0.006252012
000010 d8 ae 06 bb 63 4a ea 3b 20 37 d1 bc d0 e0 45 bd
       -0.0020550992 0.007149981 -0.025538981 -0.0483101
000020 88 17 ea 3b f1 d4 7c 3b c3 59 45 3b b8 73 93 3c
       0.0071439184 0.0038579071 0.0030113317 0.017999515
000030 ea f4 74 bc c0 47 b9 3c a7 9c 1b bc 8c 81 20 3c
       -0.01495097 0.02261722 -0.009497798 0.009796511
000040 7f 99 90 bc 3b 6d 0b 3c c0 81 7a bc cc 9f 46 3d
       -0.017651318 0.008509929 -0.015289724 0.048492238
000050 f5 34 d9 3b a1 9b 81 bd 14 44 da bc 8a 9b 85 bb
       0.0066286274 -0.06328512 -0.02664379 -0.0040773796
000060 24 ab 72 3a 42 de f0 3c e3 1d 23 bd b5 43 05 3c
       0.00092570693 0.029402856 -0.039823424 0.008133818
000070 68 01 09 bc a2 a7 85 3c 9b 57 4b 3c 1f 3c a1 bc
       -0.008362152 0.016315285 0.0124110235 -0.019681988

net.8.weight f4 [32, 32]
000000 98 1f ea 3d f1 6c c9 3e 9e 61 11 be 38 c9 ec 3e
       0.11431807 0.39340928 -0.14197394 0.46247268
000010 92 ad c7 bd 7c 94 9b be e9 bf 31 be a8 1d 45 3d
       -0.09749903 -0.30386722 -0.17358364 0.048123986
000020 bd ad 06 be 32 32 79 3e 49 9a 93 be 9d 51 2c be
       -0.13152213 0.24335554 -0.28828648 -0.16828008
000030 1d e9 02 bf 4f 1c d1 3e 61 ab 8c bd cb 7c c4 be
       -0.5113695 0.4084191 -0.068686254 -0.3837646
000040 2f b8 55 bc ac 66 31 bc d8 aa 29 3e bd c3 73 bd
       -0.013044401 -0.010827702 0.16569078 -0.059512842
000050 eb c9 a0 3e 0d 8f 0d be 81 9a 24 be 8e 58 27 be
       0.3140405 -0.13824101 -0.16074564 -0.16342375
000060 cf 40 27 3d a5 ac c8 3e 83 ee fe bc e3 3d cf 3e
       0.04083329 0.39194217 -0.03111959 0.40476903
000070 08 bd ce 3e fc 42 85 be 1c 77 6c bd 30 ba 64 be
       0.40378594 -0.26027668 -0.05773078 -0.2233665
000080 36 50 64 3e 9d 7d 38 be e8 9e 28 3e 4a fb 98 bc
       0.22296223 -0.18016668 0.16466868 -0.018674511
000090 e2 85 8d be db b0 b5 be 9d 5d f0 be 2d 93 93 be
       -0.27641207 -0.35486493 -0.4694642 -0.28823224
0000a0 c4 82 1c 3e 30 a6 16 3d c2 34 c2 3e 87 6e e5 be
       0.15284258 0.036779583 0.37930876 -0.44810888
0000b0 7d 32 9e bc b9 43 e6 be a9 37 35 3a 58 44 4f 3e
       -0.019311184 -0.44973543 0.0006912896 0.20240915
0000c0 80 56 e3 be cc 89 e6 3e 50 79 16 be 64 55 e7 3e
       -0.44401932 0.45027006 -0.14694715 0.45182335
0000d0 b3 88 89 bd 58 9c 93 3e c6 20 eb 3e 90 15 3f be
       -0.067155264 0.28830218 0.45923442 -0.18660569
0000e0 46 02 9d bd 71 d3 7d 3e ca 7c e0 be 38 8a a0 3e
       -0.07666449 0.2478769 -0.43845206 0.31355453
0000f0 52 dc aa be 5c 37 f3 3e 31 dd a8 be 51 01 40 be
       -0.33371216 0.47503173 -0.32981256 -0.18750502
000100 98 8c b4 3e d5 8f 41 be 08 74 e3 3e c0 23 be 3e
       0.35263515 -0.18902524 0.44424462 0.3713665
000110 38 f3 ef 3e 72 2e 03 bf 67 cd e2 bc 5b 89 39 be
       0.4686525 -0.51242745 -0.027685834 -0.18118803
000120 c1 45 ca 3d 39 e8 d1 be 34 ab 30 3e 36 cc f5 bd
       0.09876586 -0.40997484 0.17252809 -0.12001841
000130 28 81 8b be 60 53 db be a8 08 84 3e bf f3 1f be
       -0.27246976 -0.42837048 0.25787854 -0.15620326
000140 13 d2 c3 3e fb 7e d2 3d 1c 2d 27 3e 4c 37 ce bd
       0.3824621 0.10278126 0.16325802 -0.10069141
000150 37 cf a4 bd 61 0d 04 be 5a d1 e8 be 51 21 5e 3e
       -0.080473356 -0.12895729 -0.45472223 0.21692397
000160 76 df e8 be 50 44 8a 3e 59 b5 2a be 6d bc af 3e
       -0.45482987 0.27005243 -0.16670741 0.34323445
000170 aa 48 f2 3e 38 3c 95 be 16 1c a0 3e e6 6c 49 3d
       0.47321063 -0.29147506 0.31271428 0.04917612
000180 2b b3 d5 be 78 42 52 3e 5e a1 99 3e 43 6c dc 3e
       -0.41738257 0.20533168 0.30005926 0.43051347
000190 70 ff f8 be b6 43 ec 3e d7 da bc 3e e3 0f 08 3f
       -0.48632383 0.4614541 0.36885712 0.5314924
0001a0 7b 00 a1 3e 7b a3 81 be ed b5 c7 3e 35 cb 12 3f
       0.3144568 -0.25320038 0.39005986 0.5734132
0001b0 24 aa 3f be 07 12 ec bd 8e 6f d1 3e 09 7d cb 3e
       -0.18717247 -0.11526876 0.40905422 0.39743832
0001c0 b6 1d b2 3e 3d 29 d4 3e 65 3a a6 be d6 b4 a1 bd
       0.34788293 0.41437712 -0.32466426 -0.0789582
0001d0 60 9e 6d be 2d 02 85 3e 08 26 e2 3d 20 e4 ce be
       -0.23204947 0.25978222 0.1104241 -0.4040842
0001e0 4f 0c 08 be 5d b2 cb be cc b7 f3 be 06 e1 ed 3e
       -0.13285945 -0.39784518 -0.47601163 0.46460742
0001f0 b7 a1 64 be 89 e1 5d 3e 0e da 92 bd 21 0e f1 bd
       -0.22327314 0.21668066 -0.07170497 -0.11770273
000200 6f ad b3 3c a9 43 d0 3e 03 7a 8b bd 83 90 de 3e
       0.021933286 0.4067662 -0.06810381 0.4346963
000210 3e a2 9e 3e e5 15 af 3e cc a9 e3 be ea df 7b be
       0.30983156 0.34196392 -0.44465482 -0.24597135
000220 5f 38 de be 73 bd da bd 12 10 e7 bd 73 30 9e 3d
       -0.43402383 -0.10680666 -0.11282362 0.07724085
000230 74 af e4 3e 73 8f 68 3e d3 c9 bb be 20 c4 a2 be
       0.4466511 0.22710972 -0.36677417 -0.31790257
000240 f3 49 c6 3e 30 e0 4f 3d 3d 5a 30 3e 13 9d 8e be
       0.38728294 0.05075091 0.17221923 -0.27854213
000250 34 fe 45 bd 6f 17 1f 3e 12 b8 a5 be 0d 0e ba 3e
       -0.04833813 0.15536283 -0.32366997 0.36338845
000260 86 b8 8f 3e 1a 93 9c be 1c 05 51 be 86 19 e9 bd
       0.28070468 -0.3058098 -0.20412105 -0.11381821
000270 6e d1 84 3d 51 4f 33 be 8a 80 e5 3e 02 cf 03 bf
       0.06485258 -0.17510726 0.4482463 -0.51487744
000280 36 22 8e be 44 5e 9f be 49 d2 06 3e 5a 55 c5 3d
       -0.27760476 -0.31126606 0.13166155 0.0963542
000290 5b 3c 1a be fc e2 e3 3e 98 47 e6 be c8 cb 2c 3e
       -0.15062086 0.44509113 -0.44976497 0.16874611
0002a0 93 cd 88 be ad d8 d8 bd b4 26 f8 be 65 25 cc be
       -0.2671934 -0.105882026 -0.48467028 -0.3987228
0002b0 e5 8d db be d9 7a 75 3e ab d4 41 be 99 aa 89 3e
       -0.42881694 0.23972644 -0.18928783 0.26887968
0002c0 f2 c2 91 be 62 2e 0c be 84 3a 78 3d fa 93 da 3e
       -0.28469044 -0.13689569 0.06060268 0.42691022
0002d0 93 31 03 be aa 91 9a 3e f5 bd 07 3e e2 99 ae 3e
       -0.1281188 0.30189258 0.13256057 0.34101778
0002e0 9d 52 9f 3e 88 79 5c 3e 79 3a 1f be 17 e7 19 be
       0.31117716 0.21530735 -0.1554965 -0.1502956
0002f0 f5 fc 51 3e 63 d9 8e 3e 06 5e 4a bd 5b de 83 3e
       0.20506652 0.27900228 -0.049406074 0.2575558
000300 b7 76 84 be c0 80 98 3e 77 72 63 bd a4 1c a6 be
       -0.25871822 0.29785728 -0.055529084 -0.32443726
000310 0e 1f 6d be 78 4a cb be 13 8a d8 3d c7 c4 94 be
       -0.23156378 -0.39705253 0.105732106 -0.2905638
000320 67 73 21 be e8 a4 1b bd de 0b a3 be c6 e8 99 3c
       -0.15766679 -0.037999064 -0.3184499 0.018787753
000330 15 ab 99 bd 76 c4 14 3e f2 25 b8 3e 6a b9 a1 be
       -0.075033344 0.14528069 0.3596645 -0.31586772
000340 04 f8 90 3e 1d 3c c5 bb c2 39 90 be bd a5 75 be
       0.2831422 -0.006019129 -0.28169066 -0.23989005
000350 e2 fd 02 3e 1e b7 d4 3d e6 1d aa bb 52 9c 9a be
       0.12792161 0.10386489 -0.0051915525 -0.30197388
000360 1a 52 78 3e a0 cc 94 3d 6a e3 f9 be ea 83 ac bd
       0.2425007 0.072655916 -0.48806316 -0.08423598
000370 51 eb 05 be 23 b6 56 be e2 f9 98 be 39 24 dd be
       -0.13078047 -0.20967917 -0.29878145 -0.43191698
000380 c6 5c 00 3f e1 e3 f0 be eb c4 f1 3e 01 e3 ee be
       0.5014156 -0.47048858 0.4722055 -0.46657565
000390 42 fc e0 bd 4c 47 64 be 00 86 85 be 4d ee 18 3e
       -0.10985614 -0.22292823 -0.26078796 0.14934655
0003a0 67 ee a7 3e e7 1c a5 be 2e 5a 72 be 24 c6 7c 3e
       0.32799074 -0.32248613 -0.23667213 0.2468496
0003b0 ac b0 76 bd 5a fb 1d 3e 11 38 7e 3e 5f b4 2f be
       -0.06022708 0.15427914 0.24826075 -0.1715865
0003c0 3a c1 90 be 87 66 42 3e 19 17 3a be ac 6f ac be
       -0.2827242 0.18984424 -0.18172874 -0.3367895
0003d0 7c eb 7c be 68 4d 86 be 04 62 01 3f 36 ef f4 3d
       -0.24699205 -0.2623093 0.50540185 0.11959688
0003e0 c2 a0 95 3e 7f ae 66 3d d7 03 b2 be 02 f3 bc 3e
       0.2922421 0.056318756 -0.34768555 0.3690415
0003f0 11 89 e0 bd 91 54 09 be f2 8c d3 3e 49 30 86 be
       -0.10963643 -0.13411166 0.4131847 -0.26208714

net.8.bias f4 [32]
000000 f9 06 84 3c 12 9a f4 3c cd 01 bb 3c 2f 21 1e 3c
       0.016116606 0.029858623 0.022828007 0.009651466
000010 12 7f 5d 3c ac 97 af bb d3 ba eb 3c f2 21 29 3c
       0.013519065 -0.005358657 0.028775608 0.010323035
000020 e6 61 cd 3c 53 23 66 3c 07 fc 23 bd e8 1a 5a bc
       0.025071096 0.014046508 -0.040035274 -0.013312079
000030 da 28 de 3c 3d 3c dc bc d2 c0 99 3c 02 5e 30 3a
       0.027119089 -0.026884193 0.018768702 0.00067278754
000040 14 75 15 bd 34 64 35 3b df f5 ab bc 5a 82 e3 3b
       -0.036488608 0.0027678134 -0.020991264 0.0069430294
000050 85 fe 03 bc 2e 95 37 bc 0d b6 57 bc b2 cc 32 3b
       -0.008056288 -0.011205001 -0.013165963 0.0027282652
000060 3a e0 8f 3c b3 fd 2d b9 4d 89 11 3c 4f 7f 2b 3c
       0.017562974 -0.00016593076 0.008882833 0.010467364
000070 06 78 86 bc 6d 63 a6 3b c7 0d 23 3c a8 89 5d 3a
       -0.016414654 0.0050777704 0.009952015 0.00084509933

net.10.weight f4 [6, 32]
000000 d8 d8 63 be e1 9e a6 be a1 e7 8b be 20 d3 8b be
       -0.22250688 -0.3254309 -0.27325156 -0.27309513
000010 de be 36 3e 5b 35 21 3f 2c 99 cd be 3a ba 9e be
       0.17846248 0.6297204 -0.40155923 -0.31001455
000020 25 9d e2 be ed af a9 3c ff c9 24 3d 81 8d ec be
       -0.44260517 0.02071377 0.0402317 -0.4620171
000030 15 6f 97 3e 86 ca 18 bf a6 40 1c 3f ec a7 03 3e
       0.29576936 -0.59684026 0.61036146 0.12857026
000040 76 0d 85 bd e6 51 7a be 05 e4 95 3e 6a 43 f9 3e
       -0.06496708 -0.24445304 0.29275528 0.48684245
000050 e8 61 0b bf f6 41 25 be a9 27 00 3f 2c 24 02 be
       -0.5444627 -0.16138443 0.50060517 -0.12709111
000060 8d 2a fc be 61 d4 73 be 70 5b 92 3b af b4 b8 bd
       -0.49251214 -0.23811485 0.0044664666 -0.09018838
000070 5c da ee be f3 d1 cc be 47 ab 25 3e eb 6e c9 3e
       -0.4665097 -0.4000393 0.16178618 0.39342436
000080 f1 df 21 3f b2 51 8b bd 39 d1 7a 3e 97 52 11 bf
       0.6323233 -0.068026915 0.24493875 -0.5676665
000090 69 70 de 3e 05 5f 24 3f fd 61 b5 3e 43 a5 99 be
       0.43445137 0.6420749 0.35426322 -0.30008897
0000a0 d7 d5 0c 3f da af 2e bf e8 11 8c bd 9b a2 3c be
       0.55013794 -0.6823708 -0.06839353 -0.18421404
0000b0 69 b5 2a bf b5 c1 b3 be 57 21 04 bf e1 eb 4f 3e
       -0.6668306 -0.35108724 -0.5161337 0.20304824
0000c0 bf 43 a3 bb ef a1 c0 3e 03 c9 2b be 91 47 0c 3f
       -0.004982441 0.37623546 -0.16775899 0.547967
0000d0 55 5a cc 3d 67 eb 15 3f 46 d2 11 3f 89 ff 12 bf
       0.09978167 0.5856232 0.56961477 -0.57421166
0000e0 8e 71 ea be 99 99 d0 3e 93 fa 1b 3f b5 89 18 bf
       -0.4578976 0.40742186 0.6092922 -0.59585124
0000f0 c2 35 45 3d f9 08 90 be 08 46 2a 3f fa cf 17 3f
       0.04814697 -0.28131846 0.6651311 0.5930172
000100 57 2a f2 3e 7b f3 b1 3e 10 2c 3a bd c5 12 1f 3f
       0.47297928 0.34756073 -0.045452178 0.62138015
000110 24 c0 b7 be c0 24 51 3d 00 be 3c be b3 2c fc be
       -0.3588878 0.05106044 -0.18431854 -0.49252853
000120 64 a9 a3 be 28 0f 77 3e 50 93 6c bd 3a b7 de be
       -0.31965172 0.24126875 -0.057757676 -0.43499166
000130 ea 4f f2 bd b8 12 cd 3d 43 7d ed be e4 53 b5 3e
       -0.11831649 0.10013336 -0.4638463 0.35415566
000140 00 89 17 bf e3 9b c2 bb 32 67 0b bf 1a b8 18 bf
       -0.5919342 -0.0059389933 -0.5445434 -0.59655917
000150 8f 9f 15 be 40 46 18 3f 23 9c 1e 3f 54 8c 45 3e
       -0.14611648 0.59482193 0.61956996 0.19291812
000160 83 b2 09 3f ee b3 b9 be da e4 c0 3e b2 4f cb 3e
       0.5378801 -0.36270088 0.376746 0.3970924
000170 66 5d 1c bf a5 23 02 bf d4 1f 97 3e ce 75 61 3d
       -0.61080015 -0.5083564 0.2951647 0.055043988
000180 fb 5b de be ff d1 07 bf 96 cc fd 3e ea e3 a5 3d
       -0.4342955 -0.53054804 0.4957015 0.08100112
000190 46 71 ea ba b1 ea 25 bf af 77 15 3f 55 28 de be
       -0.0017886541 -0.64811236 0.5838575 -0.43390146
0001a0 4a ee 8e 3e 12 f3 97 bd fd fd 89 3c 77 37 aa 3e
       0.27916175 -0.07419409 0.016844744 0.3324544
0001b0 e0 5c 4d be a4 da 3f be 81 63 02 3f 14 94 06 bf
       -0.2005496 -0.18735749 0.5093308 -0.525697
0001c0 74 91 8c 3e 6f 11 2d be 30 dd 52 be 3c 79 e6 3e
       0.27454722 -0.16901182 -0.20592189 0.4501437
0001d0 fb 33 0c 3d 62 b4 1d bf 9f 6d 18 3f e4 f9 bf be
       0.03422926 -0.6160337 0.5954227 -0.3749534
0001e0 ea 17 13 3f c1 73 63 be de 46 21 3f bf 49 40 3e
       0.57458365 -0.22212125 0.6299876 0.18778132
0001f0 b4 e9 3b bd 2c 01 74 3e 98 48 f9 bc 97 80 ad be
       -0.045877174 0.23828572 -0.030430123 -0.3388717
000200 14 5b b5 3e ca 1b dd 3e a6 96 c9 bd 7e 4f 23 3f
       0.3542105 0.43185264 -0.09843187 0.6379317
000210 3a 0b c4 3c b5 8b b6 be fd 3f af be 0e ae df 3e
       0.023931134 -0.35653463 -0.34228507 0.4368748
000220 0a 28 89 be f5 ef bf 3e 48 8e 23 bf 46 81 94 3c
       -0.2678836 0.3748776 -0.6388898 0.018128049
000230 d3 11 e1 be 6c ff 73 3e 4f e8 0a 3f 6b 6e 85 3e
       -0.4395891 0.23827904 0.54260725 0.26060805
000240 98 e1 6b be 30 a9 20 bf 01 f7 a6 be 3e 49 cc be
       -0.23035276 -0.6275816 -0.32610324 -0.3989963
000250 40 c8 2f 3f ed c9 ba be 48 ae 70 3e 77 94 13 3f
       0.6866493 -0.36482182 0.23503983 0.57648414
000260 54 bc 74 3e e2 96 11 bf 00 dc 8e bd 20 c6 77 be
       0.23899966 -0.56870854 -0.069755554 -0.24196672
000270 aa cd dc 3e c2 8f 67 bd 7d 32 84 bc fa 4c 19 3f
       0.4312566 -0.056533583 -0.016137356 0.5988308
000280 d7 44 2c 3e 3d ed 99 3e 59 df 48 be cf 40 da 3e
       0.16823135 0.3006381 -0.1961645 0.4262757
000290 97 fc e0 3d 5b c4 13 be 56 dd ff 3d 6b b1 04 bf
       0.10985678 -0.14430372 0.12493388 -0.5183322
0002a0 a1 ed bd 3c 9c 5d 80 3e 6f fc 1f bf ca b4 b7 be
       0.0231846 0.25071418 -0.6249456 -0.3588012
0002b0 41 cd c8 3e b4 99 96 3c 59 8a eb bc 3a eb 5d 3d
       0.39219096 0.018383838 -0.028752493 0.054179408
0002c0 34 fd 9c be 7c 67 15 3f 7a 71 8a bd 7a 67 6d be
       -0.3066193 0.5836103 -0.06759925 -0.23184004
0002d0 03 df b2 3e ab de 07 bf 0b d8 c8 bd 35 0d 00 3d
       0.3493577 -0.5307414 -0.09806832 0.031262595
0002e0 ab 62 5c be 1d f6 b5 3e 74 0b 12 bf 24 c6 5c be
       -0.21522014 0.35539332 -0.57048726 -0.2155996
0002f0 19 70 8b be c4 0d 1a 3f b9 46 85 3e d6 a6 01 bf
       -0.2723396 0.60177255 0.2603052 -0.50645196

net.10.bias f4 [6]
000000 47 fd 71 bb 74 e2 63 3c c7 b3 36 3c ee 4a 67 3c
       -0.0036924647 0.013908971 0.011151261 0.014116986
000010 38 12 a9 3c 3d 5d 65 3c
       0.02063857 0.0139992805

exp_avg f4 [32, 1]
000000 d2 63 f9 b6 ae 9a bc b6 91 6c 5e 38 cb 99 36 35
       -7.432399e-06 -5.6208437e-06 5.3030035e-05 6.802408e-07
000010 11 5b 1d b9 1c 15 03 39 0d 7b ac b7 03 c2 a8 b7
       -0.00015006612 0.00012500997 -2.0561298e-05 -2.0117504e-05
000020 eb 90 01 36 80 51 17 37 f4 bb 54 38 a8 8c b4 38
       1.9306851e-06 9.019277e-06 5.0719784e-05 8.609268e-05
000030 31 0f 43 b8 af 10 64 b8 fe ed e8 b7 dc 5d 3d bb
       -4.650577e-05 -5.4374974e-05 -2.7767379e-05 -0.0028895056
000040 73 05 ab 37 a9 12 dd b9 cf 89 ca b7 05 c9 71 b7
       2.0387326e-05 -0.00042166308 -2.4144449e-05 -1.4411523e-05
000050 83 ef 35 38 0e eb d4 39 c3 04 5a b7 89 64 41 b6
       4.3376825e-05 0.0004061092 -1.2994921e-05 -2.881776e-06
000060 50 ff d3 37 59 ca e3 b5 ce 65 be b6 e4 60 a3 36
       2.527205e-05 -1.6971709e-06 -5.674293e-06 4.869058e-06
000070 f3 7a 4c bc 89 18 70 38 08 67 d4 b5 93 5c 40 b8
       -0.012480485 5.724331e-05 -1.5825217e-06 -4.5862584e-05

exp_avg_sq f4 [32, 1]
000000 e5 25 c8 32 f0 73 b4 31 15 ba 2f 34 78 00 80 31
       2.3300297e-08 5.25187e-09 1.6365841e-07 3.7253436e-09
000010 72 bd 62 35 1f e2 83 35 99 8f 77 33 b5 a4 30 32
       8.446724e-07 9.82607e-07 5.763977e-08 1.0281998e-08
000020 47 25 9f 32 62 e8 e9 32 4c a2 2e 34 f4 66 e0 34
       1.8526988e-08 2.7230445e-08 1.6264056e-07 4.179816e-07
000030 7f 9a 28 34 eb 5b cc 34 ec 50 c7 33 b7 10 12 3a
       1.5702425e-07 3.806484e-07 9.281379e-08 0.0005571949
000040 fa 5a ce 32 df 41 4d 37 f5 f8 11 34 f4 f1 d2 33
       2.4022928e-08 1.2234289e-05 1.3594747e-07 9.822898e-08
000050 36 38 1e 34 ce b9 10 37 f3 a2 d1 33 50 70 3b 32
       1.4735346e-07 8.62633e-06 9.761961e-08 1.09103695e-08
000060 d8 76 82 33 d7 d1 a0 32 d0 35 a5 32 32 62 43 33
       6.075214e-08 1.8721876e-08 1.9233e-08 4.5491284e-08
000070 c0 32 41 3c e8 aa 4e 34 8d fe 84 31 02 47 aa 34
       0.011791885 1.924742e-07 3.8706447e-09 3.1716633e-07

exp_avg f4 [32]
000000 c5 1c 49 37 2b 7e fb 36 11 14 fe 37 58 38 88 b7
       1.1987232e-05 7.495071e-06 3.0288504e-05 -1.62387e-05
000010 dc 48 31 b6 f8 a8 9d b6 98 d7 d7 37 30 38 74 b7
       -2.6417465e-06 -4.698635e-06 2.5730391e-05 -1.45566155e-05
000020 26 58 ab 35 22 df 21 b7 d7 9a f3 b7 92 42 21 38
       1.2766147e-06 -9.6483e-06 -2.903996e-05 3.844739e-05
000030 f4 53 3c 38 c2 2f 54 b8 1c 13 ee 36 9f af f6 b8
       4.490088e-05 -5.0589217e-05 7.0951774e-06 -0.00011762906
000040 5b 79 0f 37 06 87 ed b7 b0 e9 76 b7 11 4c a8 37
       8.5517195e-06 -2.8315477e-05 -1.4717152e-05 2.0062582e-05
000050 b6 c7 3e b8 0f 6e 96 37 d6 58 0f 37 99 b0 1b 37
       -4.5485525e-05 1.7932643e-05 8.544148e-06 9.279837e-06
000060 e1 21 61 b8 f2 5d 37 b6 6f 20 0c 38 95 a4 9d b7
       -5.3675732e-05 -2.7323808e-06 3.3408807e-05 -1.8792498e-05
000070 b6 9b 99 b9 62 7e 2c b8 3c 8a 1d b7 33 d0 18 38
       -0.00029298448 -4.11257e-05 -9.390114e-06 3.6433525e-05

exp_avg_sq f4 [32]
000000 ef 33 b9 32 39 da 8d 32 7b ac 9f 33 c6 d4 f8 32
       2.1560451e-08 1.6513797e-08 7.4353885e-08 2.8967758e-08
000010 bd fb 82 32 da 7f 80 32 dc ce 30 33 b9 e8 fa 32
       1.524847e-08 1.4959301e-08 4.116633e-08 2.920966e-08
000020 d0 1d 2e 32 3a da f3 32 b9 40 ca 33 66 df 40 34
       1.0134912e-08 2.8388161e-08 9.418131e-08 1.7962665e-07
000030 80 69 e4 33 e0 36 55 34 47 93 ce 31 f6 d2 ee 34
       1.0636268e-07 1.9857134e-07 6.0121326e-09 4.448445e-07
000040 eb 18 05 33 fd 8e 13 34 d5 e0 2a 33 66 06 69 32
       3.098914e-08 1.374246e-07 3.9785693e-08 1.356384e-08
000050 63 69 cd 33 01 6e 76 33 ad 50 df 32 1e f5 08 32
       9.565226e-08 5.7376386e-08 2.5997304e-08 7.971975e-09
000060 26 c0 60 34 04 bf b2 31 0f 56 cd 33 4c 48 20 33
       2.0931529e-07 5.202198e-09 9.5617104e-08 3.7318657e-08
000070 ea b7 fe 36 3f f6 06 34 97 00 6d 32 99 cc b4 33
       7.5912003e-06 1.2569306e-07 1.379535e-08 8.419119e-08

exp_avg f4 [32, 32]
000000 43 1e 49 b7 9e 2f 6b b7 2a 9b c9 36 07 41 7f b7
       -1.19875795e-05 -1.4018178e-05 6.0083303e-06 -1.5214325e-05
000010 24 b2 9f 36 ef d4 9c b6 5e 00 37 37 7b b2 31 b7
       4.7593076e-06 -4.673951e-06 1.09077355e-05 -1.0591578e-05
000020 5f 85 7d b7 1f 42 53 37 38 87 67 b7 b3 3c b5 b6
       -1.5111028e-05 1.2591975e-05 -1.3800156e-05 -5.4012867e-06
000030 c4 3d 60 b7 a9 c3 a1 b6 5b e1 d6 b6 25 4c ca 36
       -1.3365821e-05 -4.8209517e-06 -6.403932e-06 6.0289335e-06
000040 33 2e 57 b7 af a4 ae b6 63 34 0f 37 f0 bc fb b6
       -1.2825755e-05 -5.204776e-06 8.535661e-06 -7.502378e-06
000050 d5 09 1c 37 c9 f9 e7 36 83 37 02 37 9f bc 45 b7
       9.300614e-06 6.9134153e-06 7.761529e-06 -1.1786032e-05
000060 68 96 5c 37 7d 5f 38 37 79 24 f1 36 5e b1 1f 37
       1.3148041e-05 1.0989487e-05 7.1866057e-06 9.518435e-06
000070 c9 1f 62 b6 b9 c0 86 37 22 c8 77 b7 c1 e7 69 37
       -3.3695126e-06 1.6063788e-05 -1.4768944e-05 1.3941842e-05
000080 94 e5 8b 35 06 a3 b0 35 a2 3b 08 b5 f3 fd c0 35
       1.0423123e-06 1.3160468e-06 -5.0750725e-07 1.4379024e-06
000090 dc 29 ce b4 14 d7 c8 34 2d 85 80 b5 5e d0 70 35
       -3.8400947e-07 3.7409393e-07 -9.575502e-07 8.971018e-07
0000a0 8b 28 c1 35 a6 00 95 b5 8e 79 a9 35 c9 50 fc 34
       1.439142e-06 -1.1101554e-06 1.2626858e-06 4.6997437e-07
0000b0 71 c7 a1 35 ba ea 0a 35 32 67 e5 34 3e 68 4f b5
       1.205348e-06 5.175058e-07 4.2729658e-07 -7.72652e-07
0000c0 e1 c2 98 35 6b ea 2d 35 c0 28 42 b5 93 b0 37 35
       1.13816e-06 6.4788645e-07 -7.232993e-07 6.842976e-07
0000d0 7d 8f 58 b5 5a 3d 71 b5 6f c3 24 b5 2d 6f 8a 35
       -8.0675073e-07 -8.9868774e-07 -6.1379154e-07 1.0314158e-06
0000e0 f6 da 9d b5 f5 de 8a b5 8b 87 34 b5 5e dd 4e b5
       -1.1761138e-06 -1.034669e-06 -6.7252466e-07 -7.706311e-07
0000f0 4c 2f d8 34 17 49 d0 b5 ae e3 ba 35 ff b0 ab b5
       4.0267548e-07 -1.551848e-06 1.3924343e-06 -1.2792005e-06
000100 78 35 ac 38 5b 4b ae 38 46 d8 a6 b8 b3 69 ad 38
       8.2115585e-05 8.3110026e-05 -7.955781e-05 8.268971e-05
000110 db ed a6 b8 49 f7 a6 38 68 8a a9 b8 d4 eb aa 38
       -7.959801e-05 7.961557e-05 -8.084328e-05 8.150158e-05
000120 5e c8 ad 38 07 a5 ac b8 e8 86 ad 38 a5 9c a6 38
       8.286604e-05 -8.232338e-05 8.274411e-05 7.944674e-05
000130 e6 65 ab 38 f5 53 a6 38 e2 8a a9 38 b9 1c 91 b8
       8.1728955e-05 7.931135e-05 8.084417e-05 -6.919489e-05
000140 f3 3f ac 38 3f 82 a0 38 d3 97 a7 b8 21 27 a6 38
       8.2135106e-05 7.653655e-05 -7.99146e-05 7.922785e-05
000150 a9 c6 a7 b8 38 c8 a0 b8 ef 66 a8 b8 db 25 ab 38
       -8.000184e-05 -7.666688e-05 -8.030037e-05 8.1609665e-05
000160 bf 15 ad b8 71 6b a6 b8 1d 34 a6 b8 8e fd aa b8
       -8.253333e-05 -7.935509e-05 -7.925204e-05 -8.15346e-05
000170 d9 4e 1d 38 5e 71 ad b8 df bd ad 38 74 7c ad b8
       3.750515e-05 -8.270399e-05 8.284649e-05 -8.272464e-05
000180 8e 93 0f b8 6f 09 18 b8 70 dd e5 37 1c 5f 19 b8
       -3.4231278e-05 -3.624841e-05 2.7402042e-05 -3.656662e-05
000190 24 eb d5 37 82 60 d5 b7 40 17 07 38 57 9b 09 b8
       2.5501075e-05 -2.5436519e-05 3.220816e-05 -3.2808017e-05
0001a0 73 a5 19 b8 07 e8 11 38 1d 6d 16 b8 ee 4a d7 b7
       -3.663213e-05 3.4786786e-05 -3.5864407e-05 -2.566489e-05
0001b0 87 c9 10 b8 69 fd bc b7 6c e4 fb b7 a6 7d 8d 37
       -3.4519962e-05 -2.252935e-05 -3.0027899e-05 1.686702e-05
0001c0 7e 8d 11 b8 48 d0 ab b7 ee 44 fb 37 cb ed eb b7
       -3.470247e-05 -2.0481777e-05 2.995363e-05 -2.8124914e-05
0001d0 9b 5f ff 37 a9 71 ac 37 e4 f9 fb 37 62 ac 0c b8
       3.0442889e-05 2.0556925e-05 3.0037896e-05 -3.3539145e-05
0001e0 de 1f 14 38 f4 e4 ff 37 8b a1 e6 37 f4 8c 07 38
       3.531563e-05 3.0504983e-05 2.749336e-05 3.231778e-05
0001f0 6e 05 ee b6 71 33 1b 38 43 dd 18 b8 55 ad 16 38
       -7.093585e-06 3.700279e-05 -3.644569e-05 3.5924215e-05
000200 0c 9f 10 38 07 4b 11 38 51 6f f2 b7 6c b3 17 38
       3.44804e-05 3.464057e-05 -2.8900484e-05 3.6168305e-05
000210 4f 01 e0 b7 f1 15 df 37 f8 ea 0e b8 ec 66 0c 38
       -2.670349e-05 2.6593889e-05 -3.407427e-05 3.3474455e-05
000220 04 0f 16 38 d8 02 12 b8 e5 65 13 38 31 e0 e5 37
       3.577677e-05 -3.481176e-05 3.5142428e-05 2.7403325e-05
000230 ef f1 17 38 84 da db 37 51 b6 f4 37 bb a9 ac b7
       3.6226524e-05 2.6208589e-05 2.9171964e-05 -2.0583035e-05
000240 80 e8 13 38 f3 24 d1 37 6b 87 04 b8 6a 9e 00 38
       3.5264064e-05 2.4931947e-05 -3.159737e-05 3.0665113e-05
000250 e9 02 08 b8 e5 e9 e2 b7 9f cd 00 b8 72 7f 11 38
       -3.2427637e-05 -2.7050215e-05 -3.0709078e-05 3.4689387e-05
000260 18 cf 12 b8 10 1a 10 b8 2b 01 fd b7 3e 89 07 b8
       -3.5001984e-05 -3.4356548e-05 -3.0160494e-05 -3.2314325e-05
000270 6c d4 2b 37 f6 98 19 b8 75 4d 15 38 78 fa 13 b8
       1.0241853e-05 -3.66205e-05 3.5596506e-05 -3.52808e-05
000280 fa 22 2c b8 15 36 2d b8 00 47 28 38 d1 ba 2c b8
       -4.104057e-05 -4.1296782e-05 4.0120445e-05 -4.1181982e-05
000290 de 7c 23 38 15 4f 23 b8 a3 a8 28 38 84 64 2a b8
       3.897852e-05 -3.893588e-05 4.0211376e-05 -4.062477e-05
0002a0 db cb 2c b8 f0 9b 2c 38 ed 1a 2d b8 84 92 23 b8
       -4.119785e-05 4.1153224e-05 -4.127149e-05 -3.899868e-05
0002b0 9a 86 2b b8 6a 74 16 b8 ea 70 28 b8 69 0e f2 37
       -4.0894935e-05 -3.5871206e-05 -4.015948e-05 2.8855358e-05
0002c0 bd 4b 2c b8 0b c9 0b b8 bf 2c 26 38 3d 12 27 b8
       -4.1078532e-05 -3.332742e-05 3.9619157e-05 -3.983289e-05
0002d0 42 4b 26 38 d7 75 0a 38 7f 19 27 38 f9 e5 2a b8
       3.9647573e-05 3.301151e-05 3.9839648e-05 -4.0745337e-05
0002e0 55 f7 2c 38 6b a4 24 38 0b c7 27 38 e8 53 2a 38
       4.123834e-05 3.9253773e-05 4.0001276e-05 4.0609302e-05
0002f0 dc 85 3f b7 85 61 2c 38 ea e6 2c b8 0d 13 2d 38
       -1.1415654e-05 4.1098818e-05 -4.122305e-05 4.1264157e-05
000300 02 64 e8 37 6b b9 01 38 93 38 bf b7 09 31 fd 37
       2.7703125e-05 3.092868e-05 -2.2795319e-05 3.0182784e-05
000310 62 f2 af b7 10 9c af 37 48 8a d4 b7 21 ac dd 37
       -2.0974494e-05 2.0934298e-05 -2.5336762e-05 2.6425407e-05
000320 d8 a6 00 38 93 3c ed b7 ac a7 f9 37 f8 0a af 37
       3.0672963e-05 -2.8280809e-05 2.9761191e-05 2.0866733e-05
000330 4e 32 e2 37 25 95 90 37 a8 20 d5 37 b0 f3 37 b7
       2.6964724e-05 1.7235589e-05 2.5406785e-05 -1.0964388e-05
000340 e0 a1 e9 37 cc f0 78 37 93 3e ca b7 91 19 c0 37
       2.7851143e-05 1.4838017e-05 -2.4109415e-05 2.2900089e-05
000350 8e 02 cb b7 c6 58 6b b7 fc bd ce b7 e6 7b df 37
       -2.4200675e-05 -1.4027761e-05 -2.4645582e-05 2.6641366e-05
000360 8a d9 f2 b7 db 3a c3 b7 8f 62 bb b7 ec 0e de b7
       -2.8949948e-05 -2.3273218e-05 -2.2338032e-05 -2.647141e-05
000370 e2 b3 4d 36 bc 8f 00 b8 7d 89 ff 37 f8 95 f9 b7
       3.0652086e-06 -3.065144e-05 3.0462392e-05 -2.9752948e-05
000380 bf b7 67 b7 38 d9 8c b7 86 74 e9 36 55 51 89 b7
       -1.3811455e-05 -1.679045e-05 6.9575062e-06 -1.6369546e-05
000390 15 cd ca 36 64 85 ca b6 03 1e 44 37 6b 2e 52 b7
       6.043944e-06 -6.035598e-06 1.1689498e-05 -1.2527783e-05
0003a0 80 95 8c b7 db 48 71 37 38 70 84 b7 57 32 c8 b6
       -1.6758917e-05 1.4381682e-05 -1.5787882e-05 -5.966325e-06
0003b0 b6 de 61 b7 fb 6e a2 b6 59 58 33 b7 1f 3e 2f 36
       -1.3462899e-05 -4.840896e-06 -1.06898015e-05 2.6113191e-06
0003c0 1b 2a 6c b7 c8 40 80 b6 89 cb 26 37 c2 e2 fc b6
       -1.40765e-05 -3.822239e-06 9.94176e-06 -7.5365833e-06
0003d0 d4 56 2c 37 92 d3 6d 36 c6 8b 2c 37 13 dd 58 b7
       1.0272215e-05 3.5438902e-06 1.0284542e-05 -1.2926076e-05
0003e0 a2 e7 7b 37 63 cd 24 37 a4 d2 df 36 4a 43 4f 37
       1.5014697e-05 9.822982e-06 6.6704397e-06 1.2353828e-05
0003f0 da 20 df b5 05 bd 8d 37 0d a6 8a b7 cd 93 84 37
       -1.6624356e-06 1.6896529e-05 -1.6528205e-05 1.5804451e-05
