models/SIRNet.pt (torch, 67818 bytes, 36 tensors)

net.0.weight f4 [32, 1]
000000 8c 1c 09 3f 36 98 10 3f 02 06 0d be 54 43 17 3f
       0.53559184 0.56482255 -0.13771823 0.5908711
000010 6b 6a 29 be e8 1c d4 3d bf 69 ac be ee 5e c0 3e
       -0.16544501 0.10357076 -0.33674428 0.37572426
000020 f8 79 20 3f a0 66 f5 be d6 5d 18 3f 73 ea 51 3d
       0.6268611 -0.4792986 0.5951818 0.05124898
000030 ae 9e 04 3f 53 fc 1b 3e 61 9e a1 3e 86 92 82 bc
       0.51804626 0.15232973 0.31566146 -0.015939008
000040 11 88 0c 3f 2a f6 a4 3c 23 b6 a4 be a0 82 46 3e
       0.5489512 0.020136911 -0.3217021 0.19385767
000050 2e ea a3 be 7e e0 85 bc b3 6f 87 be 42 46 c7 3e
       -0.32014602 -0.016342398 -0.26452407 0.3892079
000060 d7 a6 0d bf 51 e0 aa be bf 30 1a be 96 3a c1 be
       -0.553327 -0.33374265 -0.15057658 -0.3774001
000070 db 91 6d 3c 3c 32 2e bf 7c 22 0a 3f 70 e7 14 bf
       0.014500107 -0.680454 0.5395887 -0.58165646

net.0.bias f4 [32]
000000 cd 20 b4 3d 65 ba 8f 3d fc 1a 03 bd d9 47 93 bc
       0.08795319 0.07017974 -0.032008156 -0.017978596
000010 19 1b 85 bd 74 98 0d 3e 2a 29 85 bd a8 4e 1e 3e
       -0.06499309 0.13827688 -0.06501992 0.15459692
000020 32 1c d0 3d a7 8e d1 bd 48 13 0f 3c 96 02 24 bd
       0.10161628 -0.10232287 0.008732624 -0.04004153
000030 63 4a 25 bd e5 76 78 3d d2 a4 63 3d e7 29 e7 3d
       -0.040354144 0.06066026 0.055577107 0.11287289
000040 99 b3 00 bd a0 1d c4 bd c8 9e 31 bd b5 bc bc 3d
       -0.031421278 -0.09575963 -0.043364316 0.092156805
000050 81 ec 68 bb 4b 4a ec 3d 44 95 94 bd d5 f9 4c bc
       -0.0035541358 0.11537608 -0.07255033 -0.0125107365
000060 eb 8b b0 bc b4 60 5c 3d 06 a2 21 3b 62 39 46 bd
       -0.021551093 0.05380316 0.0024663224 -0.04839457
000070 24 70 30 bd e1 2b 46 3c 06 29 b6 3c b4 83 1b bd
       -0.043075696 0.0120954225 0.022236358 -0.0379674

net.2.weight f4 [32, 32]
000000 95 aa b6 3e 26 ab 34 3d c5 0f 1c be b8 2a 8a 3e
       0.3567702 0.044108532 -0.1524039 0.26985717
000010 28 a4 c2 3d 51 78 ec 3e b3 94 b9 3d cb 9e 33 be
       0.095039666 0.46185544 0.09061565 -0.17541043
000020 c1 15 c6 3d e6 f6 ce bd b3 96 2d 3e 1f d2 d6 3e
       0.09672118 -0.10105686 0.16952018 0.41957185
000030 d7 74 80 3e dc e8 5b be 0e b6 85 3e 95 5c f7 3d
       0.25089142 -0.21475548 0.2611546 0.120782055
000040 89 bc 59 3e 8a 72 ae be 8c d5 ed be a8 dc 3b be
       0.21263327 -0.3407176 -0.46451986 -0.18345892
000050 3d d7 b4 be b1 0b e4 3e 90 c9 2f 3e a5 2b 2c 3e
       -0.35320464 0.4454017 0.17166734 0.16813524
000060 20 7d 50 3e 75 11 18 3d f1 1f de 3e 4e cb a5 be
       0.20360231 0.037126023 0.43383744 -0.32381672
000070 96 ef a8 3d be b2 9b be de 32 e8 3d 21 c3 05 be
       0.082488224 -0.30409807 0.11337827 -0.13062717
000080 e2 0c 2b 3e de a7 c6 bd f6 aa cb 3e 8e 87 9b be
       0.16704133 -0.09699987 0.3977887 -0.30376858
000090 89 82 aa be cc fe 7e be 61 c7 e7 3e eb 6d 4c 3e
       -0.33302715 -0.24901885 0.45269302 0.19963805
0000a0 67 e0 00 3f 64 b9 dc be 61 51 01 bf 57 41 cb be
       0.5034241 -0.43110192 -0.505148 -0.39698288
0000b0 ab 9c b3 be 20 21 7e 3e 44 81 41 3e 04 44 fc 3e
       -0.35080466 0.24817324 0.18896967 0.49270642
0000c0 44 dd 89 be 92 c5 b9 be fc c7 88 3e e3 d8 2a be
       -0.26926625 -0.36283547 0.26715076 -0.16684298
0000d0 27 f7 9f 3e 8d ed 32 bd d7 cf 8c 3e 1b ed cc be
       0.3124325 -0.043683577 0.2750232 -0.40024647
0000e0 f3 ee 83 be 8f 9c 2f 3e 17 80 d4 3d d6 b8 07 be
       -0.2576824 0.17149566 0.10375994 -0.13254103
0000f0 fa df 8e 3e 88 05 b1 3e 0d e3 bc be 51 fd 8d be
       0.27905256 0.34574533 -0.36891976 -0.27732328
000100 6c 38 dd 3e 1d a0 52 be c5 15 0c be d2 b5 07 bf
       0.4320711 -0.20568891 -0.1368018 -0.5301181
000110 c6 e9 7e be 85 b0 cd 3d d5 ea b8 bc 3c ef ce be
       -0.24893865 0.10043434 -0.022572914 -0.40416896
000120 ef 99 ac bc 18 4f a0 be 67 66 f0 be 91 76 a3 be
       -0.021069495 -0.31310344 -0.46953127 -0.31926396
000130 a8 d4 fa be 53 a2 b5 be 44 56 ed 3e 35 33 3f 3e
       -0.4899037 -0.35475406 0.46354878 0.18671878
000140 2c 6a ec 3d ed 31 0d bf d7 82 93 be 44 35 59 be
       0.11543688 -0.55154306 -0.2881076 -0.21211725
000150 8c 61 04 3e 68 f5 b9 be 9f da 32 be 11 5e b2 be
       0.12927836 -0.36320043 -0.1746621 -0.34837392
000160 cf 8d 22 3d 9a 44 0a be 07 d0 82 3c 92 90 9b be
       0.03968602 -0.13502732 0.015968336 -0.30383736
000170 9c 55 cb be b0 11 86 be 16 a7 56 be 2e 09 bc be
       -0.39713752 -0.2618537 -0.20962176 -0.36725754
000180 d4 ba e1 3e e6 79 b8 bd f7 2a c2 3e ad 0b 2b 3e
       0.4408785 -0.09007625 0.37923405 0.16703673
000190 be da fa be 43 bc d1 3e b2 05 28 be cf 7e 35 be
       -0.48995012 0.40963945 -0.16408423 -0.17724155
0001a0 68 94 d6 be 42 45 06 bf ac 5a 1c 3e ec 89 36 bd
       -0.419101 -0.5244943 0.15268964 -0.044565126
0001b0 69 36 5b 3e 73 53 af be 47 96 d0 3e 3f 73 c3 be
       0.21407475 -0.34243354 0.40739653 -0.38173863
0001c0 c3 2a 9b bd f4 a6 0e 3e bf f2 70 3e 23 db e9 3e
       -0.075765155 0.13930875 0.235301 0.45675
0001d0 44 0e df 3e 79 01 cf be 60 8d c7 3d c0 87 48 be
       0.4356557 -0.4043081 0.09743762 -0.19583035
0001e0 60 eb 87 bd f7 16 d2 be 4c c6 d5 3e f4 c9 cc be
       -0.06636691 -0.41033146 0.4175285 -0.39997828
0001f0 ba c6 8d 3e e9 fb 34 3e 87 1b 32 3e 08 1f 91 be
       0.2769068 0.17674221 0.17393313 -0.28343987
000200 39 cd ea 3e 31 ea db 3d cc 9c 8e 3d 35 33 e5 be
       0.45859697 0.10738028 0.069635004 -0.4476563
000210 df ee 5d 3e 11 76 ac bd 72 31 69 be 03 86 d9 3e
       0.21673153 -0.08420957 -0.22772768 0.42485055
000220 bf 7b e4 3d 6a 7b 8d be 62 46 84 be 2a e6 ae bc
       0.11156415 -0.2763322 -0.25834948 -0.021349985
000230 e9 c9 92 3e e5 30 0b be 3e 1a 97 be 25 cf c9 bd
       0.2866967 -0.1359287 -0.2951221 -0.09853963
000240 60 b7 c2 be 05 72 32 3e 2c 1b cc 3e 8d 30 f9 be
       -0.3803053 0.17426307 0.3986448 -0.48669854
000250 c6 34 f2 3d 2f d7 b4 3e f0 31 c8 3d 1d 78 3b be
       0.11826472 0.35320422 0.0977515 -0.18307538
000260 6f df 89 3e 7a 90 86 3e 53 99 44 3e 6b 22 af bd
       0.2692828 0.26282102 0.19199114 -0.085514866
000270 be a7 3c be 6d 90 3f 3d f2 56 bb bd d0 f4 18 be
       -0.18423364 0.046768595 -0.09147443 -0.14937139
000280 26 45 99 3e ae ed d2 3e 1b 79 0f bc 11 9a 0f be
       0.2993557 0.4119696 -0.008756901 -0.14023615
000290 46 fd 51 3d e3 31 a6 bd 2d 22 1d 3e 26 1f e9 3d
       0.05126693 -0.08114984 0.15345068 0.11382894
0002a0 32 87 fa be b0 b7 24 be cd a3 ce 3e 14 b6 18 3e
       -0.4893127 -0.16085696 0.40359345 0.14913207
0002b0 61 de 57 bd ea ed b9 be 3c 8d af be 42 36 07 bf
       -0.05270231 -0.36314327 -0.3428744 -0.52817166
0002c0 7c c6 45 be e8 59 05 3e 81 ae b6 3e 54 1a 48 3e
       -0.19313997 0.13022578 0.3568001 0.19541293
0002d0 00 aa d6 be 19 05 b7 be dd 16 42 bd dc 33 ee 3e
       -0.41926575 -0.35746077 -0.047385085 0.4652394
0002e0 9f 5a cd 3d 62 e0 cd bd 3d e6 7e 3e 03 39 29 be
       0.1002705 -0.10052563 0.24892516 -0.16525654
0002f0 44 82 bb be b5 dc cb 3e 04 18 84 be 21 e0 9b bd
       -0.36622822 0.39816824 -0.25799572 -0.076111086
000300 87 42 06 bf ab 26 a6 3e ad 72 ce 3e fd 33 2d 3e
       -0.5244526 0.32451376 0.40321866 0.16914363
000310 98 b4 ac be de 49 06 bf f8 be cb be fa 83 ba 3e
       -0.33731532 -0.5245646 -0.39794135 0.36428815
000320 af a7 68 3e c2 67 e4 3e 25 8f 7f 3e 7b f2 e1 3d
       0.22720216 0.4461041 0.24956949 0.110325776
000330 6a 6e b1 bc 4b 10 d1 be a8 04 e8 be 84 6b 07 bf
       -0.021659095 -0.40832743 -0.45316052 -0.5289843
000340 48 41 44 3e e8 2f 84 be 4d fe af bd e4 d8 9e be
       0.19165528 -0.258178 -0.08593426 -0.3102485
000350 6b c8 9d bd 98 23 cf be 17 9a a2 be c4 bc 1c 3e
       -0.07704242 -0.40456843 -0.31758186 0.15306383
000360 a2 74 09 be f7 b5 a9 3e e7 ab 16 be 8e 3d b7 be
       -0.13423398 0.3314664 -0.14714013 -0.3578915
000370 02 66 a0 bd b6 63 6b be 25 72 31 be 6d b4 ef be
       -0.078319564 -0.22987255 -0.17328699 -0.4681734
000380 fd cc 9f 3e 90 a7 a8 be 30 12 67 3e 56 93 86 3e
       0.3121108 -0.3294034 0.22565532 0.26284283
000390 49 3a aa 3e 0a 11 bf be be 89 ab 3e 01 4d 66 be
       0.33247593 -0.37317687 0.33503526 -0.22490312
0003a0 84 b9 5c 3e 75 bb e7 3e 39 a7 26 bd 44 6b 3e 3d
       0.21555144 0.45260206 -0.04068682 0.046489015
0003b0 01 3c a6 bd e6 5a ca be e5 fe 8e 3e 44 71 1f bf
       -0.081169136 -0.39522475 0.27928844 -0.62282205
0003c0 5f 39 b4 3e 7a 7e e3 3e 86 0b e5 3e 65 c9 c9 bd
       0.3520002 0.4443243 0.44735354 -0.09852866
0003d0 8f ad ea be 35 f6 18 bc 12 7f 81 3e 25 18 f2 be
       -0.4583554 -0.009336044 0.2529226 -0.47284046
0003e0 5c a2 16 be 4d f4 b5 be 49 0d b3 bd 29 2d 91 be
       -0.14710373 -0.3553795 -0.08742768 -0.28354767
0003f0 08 1c 03 be 60 e8 45 be 03 c0 e8 be b3 82 c7 3e
       -0.12803662 -0.19326925 -0.45458993 0.38966903

net.2.bias f4 [32]
000000 9a e3 ae 3d 8d 89 e7 3d 4b e8 a5 3d 70 c7 03 3c
       0.08539505 0.113055326 0.08100947 0.008043155
000010 e9 df 69 bd 8b 57 e6 bc a0 12 aa 39 84 ff a3 bd
       -0.057098303 -0.028117916 0.00032438803 -0.0800772
000020 c7 12 79 bd d0 02 d3 bd 23 b8 b7 3c 61 1d a0 3d
       -0.060808923 -0.10303271 0.02242667 0.078181036
000030 61 bd 34 3d 8b e2 d2 bc aa e8 97 3c 84 30 4f bd
       0.04412592 -0.02574279 0.01854356 -0.050583377
000040 a8 88 9d 3b 9c 83 3b bc 4d 54 4a 3d 94 2b 13 3c
       0.0048075505 -0.011444952 0.0493968 0.008982558
000050 e0 e3 ef bc c2 68 aa 3d e3 47 b9 3c f0 75 31 3d
       -0.029283464 0.08320762 0.022617286 0.043325365
000060 15 0b b9 3c 80 1b e3 bc 46 bc b9 3c f8 d4 88 bd
       0.022588292 -0.027723074 0.022672784 -0.066812456
000070 dd 1b 7b bd 13 43 d4 3b ba ac 30 bc 28 35 06 3c
       -0.06130587 0.0064777224 -0.010783369 0.008191384

net.4.weight f4 [32, 32]
000000 e4 b5 8a bd 43 72 56 be 66 76 22 be 31 c9 db be
       -0.06772974 -0.20942025 -0.15865478 -0.42926934
000010 92 a9 cc be 19 55 a1 3e a6 29 e3 3e 4b bb fb 3e
       -0.39973122 0.31510237 0.44367713 0.4916633
000020 ba 77 b8 be cb f0 8f 3e 8f 7f a2 be 4a fb 9c 3e
       -0.36028844 0.28113398 -0.31737944 0.30660468
000030 ad a0 be 3e 4d 88 c7 3e 4f 68 ba 3e aa 89 a4 3e
       0.3723196 0.38971177 0.36407706 0.3213628
000040 fa 82 1a 3c 8c 32 13 3e e8 01 44 be 42 c9 58 3e
       0.009430641 0.14374751 -0.19141352 0.21170524
000050 1f 4f 35 be 21 93 c1 bc 00 c1 29 bf 94 f7 4f be
       -0.17705964 -0.023629727 -0.6631012 -0.20309287
000060 5e f7 89 be cd 7f f9 bd 9c ca ab be 91 13 ea be
       -0.2694654 -0.12182579 -0.33553016 -0.45718053
000070 91 66 15 3d e6 17 a7 3e 86 b7 ef 3e fd 34 9a 3e
       0.036474768 0.3263542 0.46819705 0.30118552
000080 a2 f9 89 be 3b b8 00 bf aa ca 3e 3e 00 19 93 3e
       -0.26948267 -0.50281113 0.18631998 0.2873001
000090 20 33 df be 1c 10 51 3e 20 c8 dd 3e 8e 74 0d 3d
       -0.43593693 0.20416301 0.43316746 0.034534983
0000a0 f1 b0 9a be e9 e0 d5 3e 6b 6e 62 3e 23 71 af 3e
       -0.3021312 0.41773155 0.22112434 0.34266004
0000b0 4e e9 ac be 16 06 95 3e 84 bb b3 be b4 4c 01 3f
       -0.33771747 0.29106206 -0.35104 0.50507665
0000c0 cd e7 5f be 77 27 52 3e 20 9b ce 3d 7f bf 04 3e
       -0.21865769 0.20522867 0.100881815 0.12963675
0000d0 19 8c ac bd fd a8 4d 3e a1 6e 0d bf 12 d0 12 bf
       -0.08425159 0.20083995 -0.5524693 -0.5734874
0000e0 1b c9 4c be 95 18 e7 3e 92 ea 0f be 01 a8 25 3e
       -0.1999859 0.45135942 -0.14054325 0.1617737
0000f0 26 42 40 be 80 5a c3 3e 97 aa 9d 3e 57 94 3b 3e
       -0.18775234 0.38154984 0.30794212 0.18318306
000100 19 2b 83 be cf 79 da be cf 08 7c bb 72 d9 95 be
       -0.25618818 -0.42671058 -0.0038457399 -0.2926746
000110 59 12 d5 3e 10 36 fc be 3e 63 6e 3e 40 d1 02 3f
       0.4161556 -0.49259996 0.23280045 0.5110054
000120 39 27 81 3e e2 55 2e 3e 64 50 f9 be 47 86 fe 3e
       0.25225237 0.17024949 -0.48694146 0.4971182
000130 b0 d4 9e bd 40 d1 f7 be f8 40 02 3f 52 3b 55 be
       -0.07755411 -0.48401833 0.50880384 -0.2082341
000140 b0 05 e2 bc 55 c4 b2 3e 16 12 b3 be 43 04 b7 be
       -0.027590603 0.34915414 -0.34974736 -0.3574544
000150 01 5f ac 3d 09 18 82 bd c2 71 59 3d 4e 3a df be
       0.08416558 -0.063522406 0.053087004 -0.4359917
000160 e3 b4 97 3c 0f 57 62 be 02 41 7d be 17 ce f0 be
       0.01851887 -0.22103523 -0.2473183 -0.47032234
000170 7b 63 89 3e e0 2c d1 3d 82 95 de be d0 78 d1 3e
       0.2683371 0.10213637 -0.4347344 0.40912485
000180 27 fd 0b 3e c4 db eb 3d 37 5f 83 be a0 56 17 3d
       0.13670789 0.11516526 -0.2565858 0.036947846
000190 4f dd 09 3f 06 a2 a1 3e e3 4c d8 be 93 59 09 3f
       0.53853315 0.31568927 -0.4224616 0.53652304
0001a0 5c a7 8e 3d 1d 9b a7 3e 6c fc aa 3e fc d0 c4 3e
       0.06965515 0.3273553 0.33395708 0.38440692
0001b0 8d 30 df be f7 bb fc 3e 64 72 c1 be 1f b0 c4 3d
       -0.4359173 0.49362156 -0.37782586 0.09603905
0001c0 82 a5 c0 be 2d c0 e8 bd eb 31 c1 bd d3 57 cf bd
       -0.37626272 -0.113647796 -0.09433349 -0.10124173
0001d0 1b e1 09 be 14 b2 9e bb aa 5c e9 3e a8 3b aa 3e
       -0.13464777 -0.004843006 0.4557851 0.3324864
0001e0 67 40 86 3e 99 74 53 3e 2f 63 b6 3e dd 14 8e 3c
       0.2622101 0.20649947 0.35622546 0.017343933
0001f0 c9 67 a3 3d cf 5e 54 3d 06 79 d3 be 5c b1 df be
       0.0797878 0.05184823 -0.4130327 -0.43690002
000200 0b 1c 39 3d 74 ec 40 be 70 81 e7 3c b3 cf 04 be
       0.04519276 -0.188402 0.028259963 -0.12969856
000210 4e b2 bb 3d 9b 4c ac 3e 32 4e 33 be 35 8f db 3e
       0.09164868 0.33652195 -0.17510298 0.42882696
000220 22 f2 d7 3e 9a 8a bd be 77 52 d0 be 2f a0 da be
       0.4217692 -0.37019807 -0.40687916 -0.42700335
000230 59 08 90 be 96 f4 3b be c9 4e 55 bd e3 ca dd bd
       -0.2813137 -0.18355021 -0.05207709 -0.10829713
000240 fe a3 8a be 67 e9 6d be 0c f3 4a be a2 08 f6 3e
       -0.2707824 -0.23233567 -0.19819278 0.4805346
000250 ae a4 56 be 86 e4 c5 be a6 bc 02 3e af 70 d7 bc
       -0.20961258 -0.38650912 0.12767276 -0.026298849
000260 95 c9 be 3e ef c7 a8 3e 8d de e3 3e 7f fb b7 be
       0.3726317 0.32965037 0.4450573 -0.35934064
000270 4a d6 af 3e d1 23 d5 3e 1f a0 70 be 1c b9 ea 3e
       0.34343177 0.41628888 -0.23498581 0.45844352
000280 61 af bb 3e 45 ca 80 3d a3 14 9c 3e 41 98 5c be
       0.3665724 0.0628858 0.30484495 -0.21542455
000290 3f 5c d2 be 6a a9 90 3d 06 76 d6 3d 87 3f c4 be
       -0.41086003 0.07063563 0.1047173 -0.38329718
0002a0 50 8a 7a 3e ed df 00 bf 2c 41 e9 3e c4 3e 00 3f
       0.24466825 -0.50341684 0.45557535 0.5009577
0002b0 54 7c 65 3e 96 48 94 be 73 0c 54 3e 7d d2 6c 3d
       0.22410709 -0.2896163 0.20707874 0.057817925
0002c0 d4 ab c7 3d 74 7c ff 3d fb 19 d9 3e 3b 72 80 be
       0.097495705 0.124749094 0.42402634 -0.2508715
0002d0 4b c6 6c bd 89 bf 0e 3e d7 cf 50 3d f4 c2 db 3e
       -0.057806294 0.13940252 0.05097946 0.42922175
0002e0 cc 86 8e be b3 70 bd bd 00 8c 8b 3d d1 aa fd bd
       -0.27837217 -0.09250011 0.06813812 -0.12386096
0002f0 d3 8f ac 3e e5 ea 13 3d a1 6e ea be a7 9d f8 bd
       0.3370348 0.036112685 -0.45787528 -0.12139445
000300 c1 52 86 be b6 08 21 3d 45 17 69 bd 5c 30 08 bf
       -0.2623501 0.039314948 -0.056906957 -0.5319879
000310 4f bd a3 bd 28 f2 97 3b 3e 8f 19 be e5 97 06 3f
       -0.07995092 0.0046370216 -0.14996049 0.5257552
000320 72 bf 8d bd f7 26 cc 3e de 3f 76 3d 05 f7 ed be
       -0.06921281 0.39873478 0.060119502 -0.46477523
000330 c9 8c dc 3c a9 1e e8 3e c7 14 ab be 41 10 8d be
       0.0269226 0.45335892 -0.3341429 -0.27551463
000340 c3 a0 f7 3e f5 dc e5 3e f5 94 b4 be 9a 4b 88 3e
       0.4836484 0.4489514 -0.35269895 0.2662018
000350 34 68 06 be 55 77 0e bf 7c 72 fe bc 93 c8 74 3d
       -0.13125688 -0.55650836 -0.03106045 0.059761595
000360 d4 01 44 be ca 98 3f 3e a3 5d f4 be 61 eb c7 3e
       -0.19141322 0.18710628 -0.4772769 0.39046767
000370 af 54 f4 3e 08 95 86 3e 26 bb 04 3e 11 8c 3f 3e
       0.47720858 0.26285577 0.12962016 0.18705775
000380 e7 7c b7 be fe 14 0d be 98 90 1e bd cf eb 8b be
       -0.3583748 -0.13777539 -0.038712114 -0.27328345
000390 84 7e c9 be c2 56 a8 3e 6a c5 b4 3e 49 eb fa be
       -0.39354336 0.3287869 0.35306865 -0.49007633
0003a0 ff a1 14 3e 1b be 2f 3e cc 46 fd 3e 94 60 9e 3e
       0.14514922 0.17162363 0.49468076 0.30933058
0003b0 71 ef 02 3f 4b 1f 34 be 04 91 bd 3e 7b 98 c6 3e
       0.5114661 -0.17590062 0.370247 0.38788208
0003c0 d9 a4 f2 be 71 17 c5 be d7 be 00 3e f9 ee 92 3e
       -0.47391394 -0.38494447 0.125728 0.28697947
0003d0 08 b7 4e be 73 7e 90 3d cc 53 ca 3c 03 a1 11 3e
       -0.20187008 0.07055368 0.02469816 0.14221577
0003e0 82 5e 86 be b9 fa 8b 3e 20 1e b2 3e 1d 50 bb be
       -0.2624398 0.27339724 0.3478861 -0.3658456
0003f0 0d a0 7a bc b2 7f ac 3c f5 17 1a 3e 90 3a f4 3e
       -0.015296948 0.021056984 0.15048201 0.4770093

net.4.bias f4 [32]
000000 92 a4 81 bb 61 69 b3 bb cd 33 e9 bc f7 7c 7a bd
       -0.003956386 -0.0054752086 -0.028467083 -0.061154332
000010 b1 23 0b bd af 31 cf 3d fb 50 a1 bd a6 f5 22 3d
       -0.033969585 0.10116898 -0.07876774 0.03978505
000020 c8 b9 3f bc 16 df 38 bc 64 5c 63 3d 30 45 84 3b
       -0.011702009 -0.011283657 0.055508032 0.004036568
000030 8a c2 49 3d 4d c8 8b bc 79 ac 11 3c d4 4a a0 3b
       0.049257793 -0.017063284 0.008891218 0.0048917327
000040 71 02 04 3d 00 14 cf 3c 01 ad d9 3c 9e c6 eb 3c
       0.03222889 0.025278091 0.026571753 0.028781231
000050 60 8f 01 bc fe ab 0b 3d 12 40 1d bd 7a 27 a0 3c
       -0.007907718 0.03409957 -0.03839118 0.019550074
000060 05 8d 2b 3d 89 33 24 bd 3c 38 d6 bc 13 bc 88 bc
       0.041882534 -0.04008821 -0.026149862 -0.016691243
000070 ea a5 d5 bd 4b 8b 52 3c 0e 40 3c bc bf 6d 3f bd
       -0.10432036 0.012850593 -0.011489881 -0.04673552

net.6.weight f4 [32, 32]
000000 46 76 ec be 5d 50 a8 3e 77 bb 0e be c4 d3 07 be
       -0.46183985 0.32873812 -0.139387 -0.13264376
000010 d7 3a 2e 3e 34 49 d5 3e 5e 09 96 be 01 30 a5 be
       0.17014633 0.41657412 -0.29304022 -0.32263187
000020 e4 94 9e 3e 7f 8e 5b be 04 cb 32 3e a1 6d b6 bd
       0.3097297 -0.21441077 0.17460257 -0.08907629
000030 28 26 2a 3e b9 93 bf 3e dc a7 76 be 89 d6 74 be
       0.16616118 0.3741739 -0.24087471 -0.23909964
000040 be 90 87 3e a8 c0 86 3d af 58 23 bd 8e a1 d8 be
       0.26477617 0.06579715 -0.039879497 -0.42310756
000050 54 80 e0 3e 94 7a a7 3c 8b b5 d3 bd 56 81 3f be
       0.43847907 0.020444192 -0.10337361 -0.18701681
000060 7d e3 af bd a4 30 67 3e d0 53 5a bc 44 00 d6 3e
       -0.08588312 0.22577149 -0.0133256465 0.41797078
000070 3f 1b 30 bd 3c 37 b5 bd 54 ac 8b 3e e6 7c eb bc
       -0.042994734 -0.08848426 0.27279913 -0.02874608
000080 74 e5 aa bd 75 01 33 3e 88 09 af 3e 54 54 ca 3d
       -0.08344546 0.17481025 0.3418696 0.098793656
000090 33 96 a2 3e 79 33 b6 3e 9c d4 f9 3d 4f 6f 54 3e
       0.31755218 0.35586146 0.12198755 0.20745586
0000a0 e5 a4 3a 3e 79 4d 87 3d aa 8b e7 3e 7d f6 de 3e
       0.18226965 0.066065736 0.45223743 0.4354743
0000b0 27 97 59 3e 5c 8e 59 bd 9a 95 ec 3e 79 e3 c7 be
       0.21249066 -0.05311428 0.46207887 -0.39040735
0000c0 1e de c3 3e 1f cf 8f 3e b2 94 a8 3e f2 a7 82 3c
       0.382554 0.28087708 0.32925946 0.015949223
0000d0 cb f5 ab be dc d8 ac 3e 7c 95 81 be d7 9d 1b 3e
       -0.33585963 0.337592 -0.2530936 0.1519693
0000e0 3b 0d 99 3e 0f 82 04 bf 0d 8a 1f 3d 8f 6a 65 be
       0.29892907 -0.51760954 0.038950015 -0.2240393
0000f0 0f 6f a9 3e 11 ac ad be a6 68 78 3e 9c ad 95 3e
       0.33092543 -0.3392034 0.2425867 0.29234016
000100 21 37 53 3e 8d e3 d8 3e 08 b2 0c bd 9f 9d ea be
       0.20626499 0.42361107 -0.03434947 -0.4582338
000110 33 00 b4 3e e7 5c 7b 3d f5 37 29 3c 1e 72 ee be
       0.35156402 0.061367895 0.010328283 -0.4657144
000120 8e 86 ee bd 81 70 59 be 1f bf ff 3e 13 82 94 3e
       -0.11646758 -0.21234323 0.499505 0.2900549
000130 91 58 ca 3e b4 d9 af 3e de 02 a1 be d6 01 5e be
       0.39520696 0.34345782 -0.314475 -0.21680388
000140 d0 51 50 be 7b 29 59 be 6e 32 c4 3e 35 30 53 3e
       -0.20343709 -0.2120723 0.38319725 0.20623858
000150 56 3c b4 3e 86 3a 96 bc cb 29 f0 be 87 8f f0 bd
       0.35202283 -0.018338453 -0.46906886 -0.11746126
000160 3c aa b6 3e 2e 27 89 3e 44 eb dd 3d 49 fc 1a be
       0.35676754 0.26787704 0.10835889 -0.15135302
000170 5c cd f5 be 76 ac 8c be 09 1b 66 3e 56 41 55 be
       -0.4800824 -0.27475327 0.2247125 -0.20825705
000180 a3 bc a0 3e 79 50 08 3e 79 57 f2 bd 4b a3 bb 3e
       0.31393918 0.13311948 -0.1183309 0.3664802
000190 ed f4 39 be d3 02 41 bd fa c3 29 be f5 3b 0b bf
       -0.18159838 -0.047121834 -0.16578665 -0.5438836
0001a0 b1 37 31 3d 27 a1 9b 3e 7a 4c 96 be 3e a4 8a 3e
       0.043266002 0.30396387 -0.29355222 0.27078432
0001b0 14 d1 00 bf 45 ce ed be 91 82 b3 be e6 43 4e be
       -0.5031903 -0.46446434 -0.35060552 -0.20143089
0001c0 4d c7 cf bd b1 1f 68 be f4 2e 3e 3e 9e 14 04 bf
       -0.101454355 -0.2266834 0.18572599 -0.5159396
0001d0 43 09 22 3d ff cc 42 bd c6 a2 37 3e ca 96 02 3f
       0.039559614 -0.04755878 0.17933187 0.51011336
0001e0 75 39 90 3e 05 6f 70 be 60 5c d3 be 75 16 fb bd
       0.28168836 -0.2347985 -0.41281414 -0.12260143
0001f0 a0 e1 5d be 57 1e 52 3e c7 ca 43 3d bd ee e7 3e
       -0.216681 0.20519386 0.047800805 0.4529933
000200 d0 cf c7 3d 30 06 d6 bd 58 b8 3b bd c8 5a b6 3d
       0.09756434 -0.10450399 -0.0458301 0.08904034
000210 4e d5 16 bd fd a8 e4 3e c8 3c e0 be f8 7a 92 3e
       -0.036824517 0.44660178 -0.43796372 0.28609443
000220 16 1a 9b be ca e4 1b bf eb ad a0 bd 80 b8 7e 3e
       -0.3029334 -0.6089598 -0.07845672 0.24875069
000230 02 2f cc 3e 97 24 bb 3d 6b 08 3f bc 4a 3e 60 bc
       0.39879614 0.09137838 -0.011659722 -0.013686726
000240 da 34 28 be d1 33 de 3c ab 3a 1b bb 68 17 f5 3e
       -0.16426411 0.027124317 -0.0023686092 0.4786942
000250 2f 85 99 3e e7 c3 bb be b2 5e 35 bd 66 7b 9d be
       0.29984424 -0.366729 -0.04427976 -0.30758208
000260 7a 72 3d bd bf 93 ea be 34 e7 32 3e a8 59 d0 be
       -0.04625175 -0.45815846 0.1747101 -0.40693402
000270 c0 c7 ec 3e fc c9 b5 3e d5 5d c4 be 9a 1e 05 bf
       0.46246147 0.35505664 -0.38352838 -0.5199982
000280 e6 a4 91 3d f2 78 02 be 39 06 53 3e 34 ec 9d be
       0.0711153 -0.1274145 0.20607843 -0.3084427
000290 03 88 89 3e f6 48 ed be 8f 18 77 be d8 e2 96 be
       0.2686158 -0.46344727 -0.24130462 -0.29469943
0002a0 d7 b1 81 3e 60 9d fb 3d bb d6 03 bf c2 fd c2 be
       0.25330994 0.12285876 -0.5149953 -0.38084227
0002b0 ca bd 87 be 46 53 e7 be f8 98 7c 3d 99 2b 44 3e
       -0.26511985 -0.4518072 0.06166932 0.19157256
0002c0 50 5e e6 bd 7f 72 8d be 7d 56 db bc cf 90 e7 be
       -0.112484574 -0.27626416 -0.02677464 -0.45227668
0002d0 b2 bc d0 be fb 03 c6 b9 62 16 fe 3e a7 63 4d be
       -0.40768963 -0.0003776847 0.49626452 -0.20057546
0002e0 bc fb 71 3e 72 60 1f be dd 52 12 be 79 9d e0 be
       0.23631185 -0.15564135 -0.14289422 -0.43870142
0002f0 0d ee ea 3e 69 9c 04 3f 46 01 22 3d f0 66 b4 3e
       0.45884743 0.5180116 0.039551996 0.35234785
000300 48 5c c7 3e 5e c5 8e 3e 5f 2f 6e 3e a3 f8 01 bf
       0.38937593 0.27884954 0.23260258 -0.50770015
000310 65 5b 00 bf 90 67 bc be 85 5c 0c 3e 96 ed d1 be
       -0.50139457 -0.36797762 0.13707168 -0.41001576
000320 32 fb ca be 64 40 65 be de 69 e0 be d0 22 0b bd
       -0.39644772 -0.22387844 -0.4383077 -0.033968747
000330 ae cf b2 3d 02 18 a1 be 96 7f ae 3e 7e 8f 28 be
       0.08731018 -0.3146363 0.34081715 -0.16460988
000340 53 a0 02 be 80 a6 e1 3e d0 05 f2 3e 94 21 09 bd
       -0.12756471 0.44072342 0.4727006 -0.03347929
000350 5a 6e a5 be 32 85 82 be ac 3e 38 3d 4b 02 9e 3e
       -0.32310754 -0.25492245 0.044981644 0.30861124
000360 1e 49 8c 3e 8c 74 80 be 2b 48 ff be 4d 82 e8 be
       0.27399534 -0.25088918 -0.49859747 -0.45411912
000370 d3 45 3d be 51 48 59 bc b3 90 85 be e3 29 da be
       -0.18483667 -0.0132618705 -0.2608696 -0.42610082
000380 b3 d3 06 3e a7 57 be be b1 62 bd be ef e4 e2 be
       0.13166694 -0.37176248 -0.36989358 -0.44315287
000390 fb be 36 be 79 28 f0 3e 53 a5 36 3e ec 86 04 bd
       -0.17846291 0.46905878 0.17836504 -0.032355234
0003a0 66 91 d2 3d 5f cd 01 3e 72 92 e1 3c 16 ad e2 be
       0.10281639 0.12675999 0.02753565 -0.4427268
0003b0 9a a0 96 be c3 b1 b8 be d4 d0 5f 3a 58 14 e5 be
       -0.29419404 -0.3607312 0.0008537893 -0.44742084
0003c0 77 30 96 bd 41 83 17 be e2 e3 08 3f 8c 81 dd 3e
       -0.07333463 -0.14796163 0.5347272 0.432629
0003d0 39 b0 b5 3e cd 7e 67 3c e3 5e 48 be 4b 98 23 3e
       0.3548601 0.014129353 -0.19567446 0.15976064
0003e0 b1 bf a9 be d5 18 7b be 65 b3 aa bd 4b 96 17 be
       -0.3315406 -0.24521191 -0.08334998 -0.14803426
0003f0 b8 d8 01 bf 36 20 38 3e ef b0 cb 3e d0 18 9d be
       -0.5072131 0.17981037 0.39783427 -0.30682993

net.6.bias f4 [32]
000000 5f a3 be 3c 25 a7 28 3d 84 ac cf 3d a1 f0 2c bd
       0.02327126 0.041175026 0.101403266 -0.04222167
000010 ef 74 e5 3d 8e 5d 4a bd a3 8f da 3c 8b fa 28 3d
       0.11203944 -0.049405627 0.02667982 0.04125456
000020 b0 32 f2 bc 36 58 f8 3c ce 87 25 bd a7 f2 a0 bc
       -0.029565185 0.0303155 -0.040412717 -0.019646956
000030 3b cf 9e bd a7 16 bc ba 8c b9 1e 3c b1 e1 21 bd
       -0.0775437 -0.0014350013 0.0096877925 -0.039521877
000040 15 1e 70 bd 9b f6 e0 3c 67 41 90 bc 16 d6 2b bc
       -0.05862244 0.02746134 -0.017609311 -0.010488054
000050 48 b5 86 bd b0 5c 4f bc 62 dc 8d 3c 7b 74 07 bd
       -0.065775454 -0.012656376 0.017317 -0.03307007
000060 3f 67 1e 3d 68 b3 90 3b 1a b9 52 3d b0 7e 0e bd
       0.038672682 0.004415918 0.051446058 -0.034788787
000070 50 9d 1d 3c 81 c2 70 bc df 6b 63 3c b0 24 a8 bb
       0.009620026 -0.014694811 0.013880699 -0.0051313266

net.8.weight f4 [32, 32]
000000 84 3c 33 3e 2f a9 ca 3e 93 32 15 be 92 fa e3 3e
       0.17503554 0.39582202 -0.14570074 0.44527107
000010 df b1 cd bd 06 20 a3 be 07 3e 57 be 12 5b 32 3d
       -0.10043692 -0.3186037 -0.21019755 0.043543883
000020 c2 a7 db bd 8b 9e 6a 3e 2d 0c 93 be 60 16 04 be
       -0.10725357 0.22912042 -0.28720227 -0.1289916
000030 f9 33 04 bf 71 60 d1 3e 2c b9 35 bd 52 b6 ce be
       -0.51641804 0.4089389 -0.044366047 -0.40373474
000040 65 55 47 bd e9 42 17 3c d8 a6 0e 3e 1b 7b 8a bd
       -0.048665423 0.009232261 0.13930833 -0.06761762
000050 62 94 9b 3e a5 a7 2e be e5 4e 16 be 79 3c 05 bd
       0.30386645 -0.17056139 -0.14678533 -0.032528374
000060 56 a7 96 3d 0b f0 e1 3e dd b7 3d bc 4d a7 bd 3e
       0.073561355 0.4412845 -0.011579481 0.37041703
000070 d6 ef ca 3e 73 e4 9d be 6e 69 6b bc 5d 59 3b be
       0.39636105 -0.30838355 -0.014368398 -0.18295808
000080 b5 c2 6e 3e c2 d7 55 be 86 d3 ea 3d 29 82 8f 3d
       0.23316462 -0.20883086 0.11466126 0.07007248
000090 d4 13 ba be 35 8d 9f be fd f8 06 bf 88 47 9f be
       -0.36343253 -0.3116242 -0.52723676 -0.31109262
0000a0 88 40 1f 3e a5 ca 2c 3d 19 2b d4 3e d4 b9 f4 be
       0.1555196 0.042185444 0.4143913 -0.47798026
0000b0 0c 77 67 3b 1d b4 db be 2e c7 b2 3c 3e f7 5a 3e
       0.003531876 -0.42910853 0.021823492 0.21383378
0000c0 13 62 02 bf b1 d2 d8 3e 13 74 30 bd e0 7d f2 3e
       -0.509309 0.42348245 -0.043079447 0.4736166
0000d0 d0 67 86 bd df b0 a8 3e b1 6c dd 3e b2 96 16 be
       -0.065627694 0.32947442 0.43246987 -0.14705923
0000e0 96 0c 1e be e6 2c 94 3e 78 e3 e9 be 48 ed a3 3e
       -0.15434489 0.28940505 -0.45681357 0.3201697
0000f0 2c c3 b6 be 67 a2 e3 3e 3f 74 92 be 7d 3a 44 be
       -0.3569578 0.4445984 -0.28604314 -0.19162937
000100 bc fc 9e 3e 56 ef 4f be 66 f4 e2 3e 1a fa a7 3e
       0.31052196 -0.20306143 0.44327086 0.32808
000110 e4 65 ff 3e f4 27 06 bf 97 87 d2 3b 95 55 0d be
       0.49882424 -0.52404714 0.006424855 -0.13802178
000120 7d 38 cc 3d 3c b9 c7 be 6e 79 49 3e a4 51 4f 3c
       0.09971712 -0.3900851 0.19675228 0.012653742
000130 11 31 88 be 5a 7e e0 be c9 5b 6c 3e 02 dd 4f be
       -0.26599935 -0.438464 0.23081888 -0.20299152
000140 63 dc a1 3e 05 25 e8 3d 3b 6d 19 3e 63 1d db bd
       0.31613454 0.11335186 0.14983074 -0.106989644
000150 f9 6c d5 bd 2c 88 46 be 33 c7 d6 be 60 e4 9c 3e
       -0.104211755 -0.19387883 -0.41948852 0.30642986
000160 1f 27 b1 be 5e 0b b9 3e ad e7 10 be 49 e8 8d 3e
       -0.3460016 0.36141485 -0.14150877 0.27716282
000170 c9 d3 e7 3e dc 23 90 be 6a 1f e6 3e 89 c1 b1 3d
       0.45278767 -0.2815236 0.44945842 0.08679492
000180 74 a6 c2 be 38 32 49 3e 0a 43 90 3e 7a cd f0 3e
       -0.3801762 0.19648063 0.28176147 0.47031766
000190 e0 67 00 bf 5a c8 f2 3e 9c ed c8 3e e0 c7 fb 3e
       -0.501585 0.4741848 0.39243782 0.4917593
0001a0 b6 3d 83 3e 4d 92 63 be 48 1d c6 3e 30 c6 d8 3e
       0.2563302 -0.22223778 0.38694215 0.42338705
0001b0 cf d9 42 be 44 88 fc bd 4f 46 dd 3e 15 c7 d6 3e
       -0.190284 -0.12330678 0.43217704 0.41948763
0001c0 a3 59 a7 3e 7b 25 c1 3e 4f ec 5f be 47 7b a9 bd
       0.32685575 0.37723908 -0.21867488 -0.082754664
0001d0 55 70 46 be 28 ad 97 3e 8f 61 f2 3d 9e b6 a4 be
       -0.19378789 0.29624295 0.11835014 -0.32170576
0001e0 51 65 53 bd 50 9c 9a be 88 87 f9 be a4 86 ce 3e
       -0.051610295 -0.30197382 -0.48736215 0.40337098
0001f0 ca 6c 8e be b1 dc 06 3e 58 19 c0 bd e4 fc d6 bd
       -0.27817374 0.13170125 -0.09379834 -0.10497454
000200 3a 42 a6 3c ee 2d cb 3e 86 f0 a2 bd 35 65 df 3e
       0.020295251 0.3968348 -0.079560325 0.43631902
000210 94 62 91 3e 0a e2 b9 3e f5 d2 fb be 3c 63 80 be
       0.28395522 0.36305267 -0.49184385 -0.2507571
000220 ea 75 b9 be 3b bd 06 be 1b 08 b3 bd 1d bd 06 3e
       -0.36222774 -0.13158123 -0.0874178 0.13158078
000230 26 45 f0 3e 30 c3 71 3e d7 49 cd be 03 9c a1 be
       0.46927756 0.23609614 -0.40095398 -0.3156434
000240 7b 7e ba 3e 1b a0 1b 3d 48 be be 3d 48 b7 84 be
       0.36424622 0.037994485 0.09313637 -0.25921082
000250 e2 3a 55 bd cc ce 14 3e 39 18 af be 9d 27 aa 3e
       -0.05205811 0.14532012 -0.34198168 0.33233348
000260 cf 27 6a 3e a6 5c ab be 0a 79 5c be 69 90 1e be
       0.22866748 -0.33469123 -0.21530548 -0.15484776
000270 76 44 bf 3d 16 b9 ce bd e6 8f e3 3e 52 58 09 bf
       0.0933923 -0.10093896 0.44445723 -0.5365039
000280 cc b4 8a be bf ac aa be 44 59 d5 3d da 83 cc 3d
       -0.27091062 -0.3333492 0.10417417 0.09986086
000290 eb c3 32 be 81 54 f0 3e 73 e5 f0 be f5 83 1b 3e
       -0.1745755 0.4693947 -0.47050056 0.15187056
0002a0 8d 7f 5e be 33 58 01 be ce fa e9 be 40 1f a6 be
       -0.21728344 -0.12631302 -0.4569916 -0.32445717
0002b0 dc 96 ce be af 60 82 3e 95 2c e5 bd 4e 0b 98 3e
       -0.40349472 0.2546439 -0.11190144 0.29696125
0002c0 f4 dc a7 be 28 ab 1f be de ed 22 3c e3 ef e6 3e
       -0.3278576 -0.15592635 0.009944407 0.45104894
0002d0 d7 4d eb bd 5e 2a ae 3e 4b c0 e3 3d ab 05 9f 3e
       -0.11489456 0.340167 0.11120661 0.31059012
0002e0 06 eb 7d 3e 78 71 fa 3d 7b e7 36 be 84 d0 dd bd
       0.24796686 0.12228674 -0.1786174 -0.10830787
0002f0 ff ce 53 3e d5 f3 9b 3e 9b 64 d0 bd c8 8d 43 3e
       0.20684431 0.30459467 -0.10175439 0.19097054
000300 dd 68 cf be 17 e0 9a 3e e5 bb 61 bd 7c 29 be be
       -0.40509692 0.30249092 -0.05511083 -0.37141025
000310 2d 0c 68 be f8 95 d2 be c4 9e d1 3d a2 95 90 be
       -0.22660895 -0.41130042 0.1023536 -0.2823916
000320 1e e5 30 be e6 65 3c bd f6 70 a3 be 8f 9c 1b 3d
       -0.17274901 -0.045995615 -0.3192212 0.037991103
000330 98 69 a5 bd 61 6c 29 3e 61 fe 8a 3e 27 62 a4 be
       -0.08076781 0.1654525 0.271472 -0.32106134
000340 5f 21 4f 3e ac 61 6c 3c 39 1f 96 be 97 67 80 be
       0.20227574 0.014427584 -0.29320696 -0.25079033
000350 31 ae d7 3d db 86 8a 3d 0c 2c 2d ba df e8 43 be
       0.10531271 0.06764003 -0.000660599 -0.19131802
000360 e7 b1 72 3e 29 ff e0 3d 20 c5 f3 be a6 52 ea bd
       0.23700677 0.10986168 -0.47611332 -0.11441545
000370 ca e8 00 be bd 08 4e be c1 67 93 be 5c d5 9a be
       -0.12588802 -0.20120521 -0.28790095 -0.30240905
000380 db b4 06 3f 42 5d e8 be 00 eb 02 3f ec 82 cd be
       0.52619714 -0.4538365 0.5113983 -0.40138948
000390 d3 6a f7 bd 48 75 68 be f6 87 58 be 45 0e 45 3e
       -0.12080922 -0.22700989 -0.21145615 0.19243725
0003a0 95 30 81 3e 02 64 a3 be e3 63 82 be a0 34 7e 3e
       0.25232378 -0.31912237 -0.25466833 0.24824762
0003b0 9f b5 7d bd c2 e5 07 3e 40 60 74 3e 51 6c 4f be
       -0.061940785 0.1327124 0.23864841 -0.20256163
0003c0 91 a3 49 be 54 e6 40 3e 7a d4 69 be b9 a3 b0 be
       -0.19691302 0.18837863 -0.2283496 -0.3449991
0003d0 33 3c 79 be e1 f9 8b be a0 0a 08 3f e4 94 dd 3d
       -0.2433937 -0.2733908 0.5314121 0.10819414
0003e0 09 55 8d 3e 3b d6 93 3d ce 83 ae be a1 a1 ad 3e
       0.2760394 0.072185956 -0.34084934 0.33912376
0003f0 ea a7 8e bd df 8a ea bd f4 bc a8 3e 57 1c 8f be
       -0.06965621 -0.11452269 0.3295666 -0.2795131

net.8.bias f4 [32]
000000 ee 8d 5c 3c 98 46 ee bc 56 dd 0b 3d 43 70 80 bc
       0.013461573 -0.029086396 0.03414663 -0.01567853
000010 e1 34 7a bc 98 fc d8 bc 86 64 9b 3c ec cf 98 bc
       -0.015271396 -0.026487634 0.018968832 -0.018653832
000020 2d 73 9b bc b8 9b 9a 3c 45 e4 04 3b 60 58 df 3c
       -0.018975819 0.01887308 0.002027766 0.02726382
000030 84 8b e9 3b f1 a8 f1 39 d3 3d 47 bd fd 7b b9 3c
       0.0071272273 0.00046092973 -0.048642945 0.02264213
000040 d5 5d f2 bc 7f b9 80 3b 1e 44 4a 3d 75 18 a4 3c
       -0.029585758 0.003928363 0.049381368 0.020031193
000050 9c 7c d0 bc 51 df b8 3c c0 3d 5c 3d da 4f 48 bd
       -0.025450043 0.022567423 0.053769827 -0.048904277
000060 07 8b b3 bd a2 09 81 3b a2 5d 8f b9 96 03 49 bc
       -0.08766752 0.003937916 -0.00027344847 -0.012268921
000070 48 ed 8b bd 17 9a 37 bd 03 37 0a bc 77 2d f6 bc
       -0.06832367 -0.044824686 -0.008435967 -0.030050976

net.10.weight f4 [3, 32]
000000 10 ca 7e be fa 1e ab be 60 06 90 be f5 74 51 be
       -0.24881768 -0.3342207 -0.28129864 -0.20454772
000010 1d 15 cc 3d b8 84 22 3f df 57 c1 be 8d c6 a0 be
       0.099649645 0.6348376 -0.37762353 -0.31401482
000020 bd 01 f0 be f7 b7 82 3b 93 22 1e 3d e6 52 f1 be
       -0.46876326 0.0039892155 0.03860719 -0.4713356
000030 11 78 61 3e 8b f3 1b bf 5b c9 20 3f 73 f2 ff 3d
       0.22018458 -0.6091849 0.62807244 0.124974154
000040 33 a1 a3 bd 57 88 06 be 41 89 9d 3e e5 5f 01 3f
       -0.07989731 -0.13137947 0.3076878 0.5053695
000050 2c da e6 be c3 37 19 be 95 9d 02 3f b4 d0 00 be
       -0.45088327 -0.14962678 0.510217 -0.12579614
000060 1f a7 01 bf 40 b2 76 be 5a 8b e8 3c 09 5e ee bd
       -0.5064563 -0.24091434 0.02838676 -0.116390295
000070 f5 99 f5 be 49 da df be bd 7b 3a 3e 0e d7 ee 3e
       -0.47969022 -0.43721226 0.18211265 0.4664845
000080 3b d3 15 3f 9f fb a2 bd ab be 82 3e 87 9d f5 be
       0.5852544 -0.07958149 0.25536093 -0.47971746
000090 7b 22 93 3e 0c 1a 28 3f 0d 18 ad 3e b4 68 8b be
       0.28737244 0.65664744 0.33807412 -0.2722832
0000a0 af bd 0e 3f 35 0b 26 bf 55 6e 96 bd 32 a4 23 be
       0.55758184 -0.6486085 -0.07345263 -0.15980604
0000b0 be 5a 22 bf 41 f7 c7 be bc 9f ff be a0 18 2a 3e
       -0.6341971 -0.39055827 -0.49926555 0.16610956
0000c0 ce f4 7d bd 4c 5d 91 3e ae 1b 16 be 0a ed 12 3f
       -0.062001042 0.28391492 -0.14658996 0.5739294
0000d0 5c a7 b1 3d 8f 7a 0d 3f 63 1b 0e 3f ab f6 15 bf
       0.086744994 0.55265135 0.5551054 -0.5857951
0000e0 6c ac ed be f7 e0 d1 3e 42 3c 26 3f 11 4f 0b bf
       -0.4642061 0.40991947 0.64935696 -0.5441752
0000f0 24 df ae 3c 6e 5b 86 be 59 0d 23 3f 6c 0e 0d 3f
       0.021346636 -0.2624163 0.6369224 0.5510013
000100 44 bf f2 3e c9 f4 bd 3e f9 11 7f bd 07 4a 10 3f
       0.4741155 0.3710082 -0.062273 0.56362957
000110 ef ee ae be 17 e2 4a 3d d3 7e 39 be 94 3a 01 bf
       -0.34166667 0.049532022 -0.18114786 -0.5048001
000120 3b f0 a4 be 56 58 04 3e 11 54 5b bd 5b 3d e6 be
       -0.3221453 0.12924322 -0.05354697 -0.44968686
000130 89 4c 49 bc bb 9f f3 3d 4d 58 f4 be 68 a6 cc 3e
       -0.012286314 0.118957005 -0.47723618 0.39970708
000140 98 dd 14 bf 08 ec 1e bc 43 d8 0d bf 4e 21 1d bf
       -0.58150625 -0.009699829 -0.55408114 -0.61378944
000150 3a 9c 8a bd d3 2a 1c 3f 66 66 25 3f 3c 38 79 3e
       -0.06768079 0.61002845 0.6460937 0.24337858
000160 ca d2 07 3f 7c 5f bb be 15 64 c6 3e d0 46 cb 3e
       0.53056014 -0.36596286 0.38748232 0.39702463
000170 52 56 26 bf 6c d6 05 bf fa 59 98 3e 11 f9 80 3d
       -0.64975464 -0.52280307 0.29756147 0.06297506

net.10.bias f4 [3]
000000 69 07 df 3b f6 98 7d 3a 8b 24 e1 3a
       0.0068063033 0.0009673977 0.0017177028

exp_avg f4 [32, 1]
000000 dd 93 9d b5 c9 26 39 b5 6a 48 e5 35 38 e4 07 b6
       -1.1740445e-06 -6.897431e-07 1.7082905e-06 -2.0249408e-06
000010 4e de 41 b5 8c 73 8f b5 14 00 96 b5 f9 f3 a8 b4
       -7.22216e-07 -1.0687959e-06 -1.1175894e-06 -3.1469952e-07
000020 2c d2 89 35 1f a7 52 35 d5 f3 f9 35 06 97 f3 37
       1.0268463e-06 7.847429e-07 1.862291e-06 2.9038183e-05
000030 36 f4 8c b5 4c 2c cd b3 c7 32 d1 b4 58 94 08 ba
       -1.0501888e-06 -9.554114e-08 -3.896623e-07 -0.0005210093
000040 a1 43 3c b5 1d ad 96 39 1b 60 42 b6 48 ba 40 b5
       -7.013387e-07 0.0002873921 -2.8964193e-06 -7.179665e-07
000050 8e 28 0d 36 c0 ee 4f ba be d2 1e 35 80 be 6a 34
       2.1034243e-06 -0.0007932 5.9166257e-07 2.1862252e-07
000060 32 93 0d b6 2d 30 c9 35 2b 6f 25 b6 6a 1f f1 b3
       -2.1096316e-06 1.4989688e-06 -2.4651624e-06 -1.1228151e-07
000070 a6 93 32 3a 93 6e 84 35 a5 5d 8a b4 12 54 24 b6
       0.00068121625 9.866948e-07 -2.5772638e-07 -2.448684e-06

exp_avg_sq f4 [32, 1]
000000 7d 72 92 31 fc b4 4c 32 94 ee 71 32 15 cd 2d 32
       4.262175e-09 1.1915514e-08 1.4082293e-08 1.0116556e-08
000010 a0 1f 5d 31 10 6c 6e 31 be 1c 61 31 e3 28 8f 31
       3.217771e-09 3.4694985e-09 3.2758147e-09 4.166496e-09
000020 2c 35 26 32 34 40 03 32 4f 63 dc 31 76 50 92 35
       9.674562e-09 7.639802e-09 6.414133e-09 1.0901265e-06
000030 9c c6 d0 30 b5 fb ac 30 d4 5b 22 31 3b 9d 42 3a
       1.519044e-09 1.2586187e-09 2.36263e-09 0.0007423942
000040 1f 48 a7 31 8d f7 55 39 a8 55 06 33 fd bf d4 31
       4.868539e-09 0.00020405483 3.127721e-08 6.1918386e-09
000050 e3 3a df 32 ae 51 f6 3a ab f6 26 32 56 45 42 31
       2.5987395e-08 0.0018792653 9.7185575e-09 2.8270128e-09
000060 81 ef 29 32 57 10 51 31 c8 ee 9c 32 ea ef 10 31
       9.891552e-09 3.042279e-09 1.8269375e-08 2.1091133e-09
000070 8a 61 af 3a ec e4 aa 31 fc 70 2d 30 92 06 90 32
       0.0013380509 4.9736766e-09 6.3097594e-10 1.6766794e-08

exp_avg f4 [32]
000000 b9 0f 0b 36 6d da e0 34 b0 93 39 b6 4c 77 92 35
       2.0721766e-06 4.1882177e-07 -2.7653114e-06 1.0912568e-06
000010 dd f2 be b4 d9 75 91 b4 be 35 28 35 f8 c9 bb 34
       -3.5566964e-07 -2.70941e-07 6.266308e-07 3.4978416e-07
000020 52 61 3d b4 95 c6 ad b4 1c 52 bf b5 4f e4 43 35
       -1.7637402e-07 -3.2368249e-07 -1.4254506e-06 7.2975394e-07
000030 5b 4a 93 35 e2 7f d3 34 68 8c 8b 35 1b 4f 63 b7
       1.0973994e-06 3.939486e-07 1.0397171e-06 -1.35486725e-05
000040 75 7c 2d b4 71 f6 dd 36 d2 e0 14 36 3b 9f 28 36
       -1.6157158e-07 6.615003e-06 2.2184581e-06 2.5126635e-06
000050 3d d8 69 b6 88 86 6b b7 10 93 9c b5 c0 1c 34 36
       -3.4845573e-06 -1.40384145e-05 -1.1665707e-06 2.6838825e-06
000060 db 94 0e 36 27 d1 30 b5 16 08 c6 35 c1 d7 4f b4
       2.1246294e-06 -6.5869466e-07 1.4754503e-06 -1.9356868e-07
000070 3a 62 68 37 f5 01 43 b6 b7 e3 3f b6 5d 53 7d 36
       1.3851148e-05 -2.9058403e-06 -2.8593765e-06 3.7748462e-06

exp_avg_sq f4 [32]
000000 7f 96 53 32 e4 7b f1 32 bb e1 e0 32 17 c2 7f 32
       1.2316035e-08 2.8112431e-08 2.6179682e-08 1.48870845e-08
000010 fe de ac 31 8d 97 1a 32 d8 51 8d 30 94 73 a4 31
       5.03121e-09 8.998438e-09 1.0282362e-09 4.786168e-09
000020 7b 4d 83 31 d6 94 5d 32 12 07 f2 31 73 0c 2b 31
       3.8214103e-09 1.2897734e-08 7.0439308e-09 2.4890852e-09
000030 b1 3e 7b 31 9b ce 09 32 d2 4e 14 32 c0 95 b1 34
       3.6560943e-09 8.021426e-09 8.6326555e-09 3.3077777e-07
000040 cf f0 db 32 91 3e 0a 34 d7 e6 84 32 6d 17 31 33
       2.5604463e-08 1.2875013e-07 1.5471796e-08 4.123233e-08
000050 e1 6a c2 33 18 e0 57 35 ac 86 bf 32 e0 e4 9e 32
       9.05327e-08 8.041984e-07 2.2296568e-08 1.8497701e-08
000060 7c a8 19 33 37 ad d2 30 65 bc f3 32 f7 7e 74 33
       3.5776324e-08 1.5328742e-09 2.8374595e-08 5.692615e-08
000070 3d 99 fa 34 b1 17 b5 32 08 a7 06 33 14 00 9f 33
       4.6677624e-07 2.1081947e-08 3.135122e-08 7.404029e-08

exp_avg f4 [32, 32]
000000 27 24 ee 33 bc dc ef 33 3c 1e 84 b3 96 bd db 33
       1.1089315e-07 1.1169456e-07 -6.1522286e-08 1.0232468e-07
000010 c5 fc 92 b3 6b 00 9c 33 74 fb b8 b3 5d e8 da 33
       -6.844633e-08 7.264392e-08 -8.613907e-08 1.0193683e-07
000020 43 c1 03 34 d4 c6 e4 b3 28 d8 e4 33 58 9a 4e 33
       1.2270634e-07 -1.0653244e-07 1.0656396e-07 4.8103487e-08
000030 a4 bd c3 33 95 09 8f 33 7b 9e b1 33 0e fe d0 b2
       9.1148905e-08 6.6606994e-08 8.271032e-08 -2.4329918e-08
000040 0a a4 cd 33 da 6a 0d 33 b0 3d af b3 6f b9 a0 33
       9.575895e-08 3.29263e-08 -8.1602934e-08 7.484311e-08
000050 37 53 a3 b3 95 ee d2 b2 d4 bc aa b3 28 7f ae 33
       -7.605416e-08 -2.4555712e-08 -7.9505895e-08 8.125636e-08
000060 86 d5 de b3 bf 1b 95 b3 f1 ac 78 b3 2e a9 bd b3
       -1.037652e-07 -6.9434e-08 -5.789929e-08 -8.831772e-08
000070 21 01 0b 33 ab f9 f2 b3 c8 c5 db 33 95 70 ea b3
       3.2364486e-08 -1.13144175e-07 1.02339584e-07 -1.0916953e-07
000080 cd 49 78 32 8f dd 1e 33 b1 e7 33 33 49 b0 04 34
       1.445228e-08 3.6988748e-08 4.1887407e-08 1.235759e-07
000090 d6 89 7e 33 e9 c2 1a b4 bd aa 10 32 61 9d aa b3
       5.9264345e-08 -1.4413276e-07 8.420725e-09 -7.944869e-08
0000a0 0e 5e 9f 32 22 8b 26 32 a7 90 d7 33 38 2b ad b2
       1.8552807e-08 9.694107e-09 1.003803e-07 -2.0159504e-08
0000b0 38 53 0a 34 e9 ab 81 b3 c7 80 d7 b1 f6 7c 42 b3
       1.2882526e-07 -6.038301e-08 -6.271964e-09 -4.5282796e-08
0000c0 12 22 09 34 c3 50 cd 32 47 f0 ea b1 ab 47 9d b3
       1.2771514e-07 2.3901867e-08 -6.8376127e-09 -7.3239185e-08
0000d0 54 67 2f b3 cd 32 49 b3 be 33 16 33 46 0a 9d 33
       -4.083934e-08 -4.6845162e-08 3.4971656e-08 7.312751e-08
0000e0 d6 75 ac b3 1b 3a cb b3 7c 23 f1 31 b6 2a 8b b2
       -8.0308084e-08 -9.4634935e-08 7.0180572e-09 -1.6201152e-08
0000f0 e9 ff 44 b2 41 e3 0f b4 a0 04 a5 33 0e 71 97 b3
       -1.1466889e-08 -1.3400587e-07 7.6842525e-08 -7.05205e-08
000100 83 3e ad b5 bb 45 ab b5 e0 c6 c7 35 92 03 af b5
       -1.2907698e-06 -1.2760787e-06 1.4884536e-06 -1.3039555e-06
000110 d2 7e cb 35 43 3c b9 b5 b4 52 c7 35 54 6b bb b5
       1.5161588e-06 -1.3801113e-06 1.4850725e-06 -1.3963822e-06
000120 9c b8 a2 b5 7e b6 b2 35 e1 73 ac b5 d9 b0 81 b5
       -1.2123669e-06 1.3315146e-06 -1.2848724e-06 -9.662718e-07
000130 e6 32 b9 b5 e1 a6 c9 b5 ef 7e ca b5 a6 d1 cb 33
       -1.3798387e-06 -1.5024235e-06 -1.5087115e-06 9.491059e-08
000140 a5 c9 b4 b5 b1 ab 5e b4 49 ef ca 35 6d 74 cc b5
       -1.3469731e-06 -2.0737822e-07 1.5119814e-06 -1.5233069e-06
000150 b2 b3 ce 35 52 66 d1 33 d4 6d cd 35 8d 8e c7 b5
       1.5400494e-06 9.750933e-08 1.5305654e-06 -1.4868143e-06
000160 81 10 b0 35 9e a0 d2 35 08 93 cc 35 3c bc c3 35
       1.3117825e-06 1.5692965e-06 1.5241976e-06 1.4583416e-06
000170 7d cc 25 b4 f5 55 a5 35 c3 a1 b1 b5 ff bb ab 35
       -1.5441215e-07 1.2318475e-06 -1.3234607e-06 1.2795207e-06
000180 cf 0e b3 b4 df ac a5 b4 7e a2 8c 34 d9 d1 51 b4
       -3.3352123e-07 -3.0859425e-07 2.619526e-07 -1.9540984e-07
000190 53 97 a6 34 de db d1 b4 8f 4f a8 34 63 ce e4 b4
       3.1030012e-07 -3.9089258e-07 3.1350325e-07 -4.2618476e-07
0001a0 5e b6 b8 b4 1a 7c be 34 ca 05 75 b4 13 07 d4 b3
       -3.440536e-07 3.5480554e-07 -2.2819509e-07 -9.873306e-08
0001b0 27 92 38 b4 6f 6a a2 b4 c8 8a a2 b4 1c 3f e0 b3
       -1.7189505e-07 -3.0252292e-07 -3.0275828e-07 -1.04422924e-07
0001c0 8b 31 42 b4 1e ef 8a 33 d1 ae 99 34 9d 29 bb b4
       -1.8085682e-07 6.469621e-08 2.8625666e-07 -3.4861742e-07
0001d0 3e 65 7d 34 3b 4b e6 b3 76 9b ae 34 1c 77 65 b4
       2.3599293e-07 -1.0723894e-07 3.2523138e-07 -2.1370619e-07
0001e0 23 c8 84 34 d0 25 2e 34 12 f3 6a 34 a6 70 9c 34
       2.4732535e-07 1.6218769e-07 2.1881377e-07 2.9139227e-07
0001f0 2b 31 90 31 32 ad 53 34 f5 a8 85 b4 8e f3 8e 34
       4.1965413e-09 1.9713914e-07 -2.4896113e-07 2.662677e-07
000200 43 52 96 b5 22 68 95 b5 e8 51 84 35 40 67 8d b5
       -1.1199812e-06 -1.1131672e-06 9.858604e-07 -1.0535368e-06
000210 45 cf 88 35 6c 55 8d b5 e0 71 8e 35 61 35 98 b5
       1.0193113e-06 -1.053018e-06 1.0612966e-06 -1.1340418e-06
000220 a8 4a 9a b5 f2 1a 96 35 bd 32 90 b5 12 06 6a b5
       -1.1495622e-06 1.1183713e-06 -1.0743603e-06 -8.7180626e-07
000230 04 19 89 b5 55 d4 87 b5 ec ec 8c b5 19 69 fb 34
       -1.0214576e-06 -1.012008e-06 -1.0499766e-06 4.6828862e-07
000240 4d d4 8a b5 c7 e3 1d b5 c1 de 8b 35 87 94 8c b5
       -1.0343589e-06 -5.881852e-07 1.0421137e-06 -1.047404e-06
000250 ec e9 87 35 48 85 fe 34 c6 03 8d 35 f5 5f 88 b5
       1.0126364e-06 4.7408162e-07 1.0506417e-06 -1.0160717e-06
000260 7f 45 90 35 fa 90 82 35 aa 57 81 35 17 07 8e 35
       1.0749062e-06 9.727949e-07 9.636763e-07 1.0581888e-06
000270 42 0d 0c b5 ba c8 90 35 e7 eb 8f b5 f2 b7 92 35
       -5.2173357e-07 1.0787255e-06 -1.0722987e-06 1.0931383e-06
000280 47 51 e9 36 68 f1 e7 36 2f 02 f1 b6 8b a3 e4 36
       6.953403e-06 6.91244e-06 -7.182614e-06 6.8139684e-06
000290 07 9e f1 b6 56 67 f4 36 89 32 ee b6 db bd ef 36
       -7.2007565e-06 7.2837965e-06 -7.098836e-06 7.144857e-06
0002a0 bd 3d e7 36 4a 50 eb b6 0c 3e e5 36 dd 6f e9 36
       6.8915238e-06 -7.0128926e-06 6.831955e-06 6.9569637e-06
0002b0 47 24 e6 36 e4 ac f1 36 e3 82 ee 36 0f 72 94 b6
       6.8587574e-06 7.202487e-06 7.10819e-06 -4.424022e-06
0002c0 95 75 e5 36 54 d0 af 36 69 fd ed b6 5b 02 f2 36
       6.83842e-06 5.239659e-06 -7.0926512e-06 7.2124362e-06
0002d0 00 fb ec b6 fe 5f 96 b6 93 29 f0 b6 53 ad ea 36
       -7.0625683e-06 -4.4815233e-06 -7.1573972e-06 6.993921e-06
0002e0 c3 cc e6 b6 19 22 eb b6 55 ce ef b6 36 a6 ec b6
       -6.8783716e-06 -7.0075153e-06 -7.1467753e-06 -7.0526976e-06
0002f0 76 51 96 36 50 57 e2 b6 e7 38 e7 36 52 7c e6 b6
       4.4798317e-06 -6.7454894e-06 6.890961e-06 -6.869007e-06
000300 54 43 94 36 12 e8 96 36 5f 1f 73 b6 69 d6 9b 36
       4.4185817e-06 4.497365e-06 -3.6228082e-06 4.6443206e-06
000310 72 09 77 b6 2f fb 63 36 09 56 88 b6 88 5a 87 36
       -3.6811366e-06 3.3971844e-06 -4.0631317e-06 4.0338527e-06
000320 a1 96 99 36 c6 1a 90 b6 30 46 9b 36 62 a6 49 36
       4.577291e-06 -4.2946513e-06 4.627531e-06 3.0048182e-06
000330 7e d4 97 36 c9 ab 74 36 87 2f 87 36 ef 66 c7 b5
       4.524888e-06 3.6458825e-06 4.0288464e-06 -1.4856613e-06
000340 ad 94 99 36 12 2b f5 35 b6 1b 88 b6 b9 1e 7a 36
       4.5770635e-06 1.8266458e-06 -4.056342e-06 3.7270786e-06
000350 9b 52 89 b6 ce 62 ca b5 83 11 83 b6 6c 82 8e 36
       -4.0925347e-06 -1.5078929e-06 -3.906143e-06 4.247113e-06
000360 74 15 98 b6 4e 1b 8c b6 f9 32 78 b6 0b 9b 8b b6
       -4.5324505e-06 -4.175504e-06 -3.698455e-06 -4.160572e-06
000370 5d 02 c8 35 ae 79 a1 b6 ca 20 97 36 b7 4c 99 b6
       1.4901849e-06 -4.8123393e-06 4.503968e-06 -4.568686e-06
000380 9f 1c be 34 94 36 92 34 c9 a9 79 b5 b6 fb aa 33
       3.5411082e-07 2.723433e-07 -9.30068e-07 7.962028e-08
000390 9c af 7a b5 ed 93 9b 35 64 5a 2c b5 c6 48 45 35
       -9.33878e-07 1.1591452e-06 -6.420653e-07 7.349412e-07
0003a0 6f a5 72 34 88 64 fd b4 63 e2 f3 33 69 50 78 35
       2.259819e-07 -4.7198068e-07 1.1356749e-07 9.250421e-07
0003b0 20 cf 33 34 13 20 7f 35 b7 2e 32 35 89 53 e9 b4
       1.6746026e-07 9.5041577e-07 6.6378146e-07 -4.3460412e-07
0003c0 be c2 09 34 c6 9f 1f 35 b0 5d 29 b5 93 cc 79 35
       1.2829966e-07 5.9464617e-07 -6.309374e-07 9.3057423e-07
0003d0 8b 05 19 b5 f3 46 ec b4 fd b9 50 b5 34 a8 e5 34
       -5.700501e-07 -4.4010048e-07 -7.7756687e-07 4.2776958e-07
0003e0 66 13 5d b4 e0 ed f4 b4 ab 2b 64 b5 f1 e6 12 b5
       -2.0589286e-07 -4.5621618e-07 -8.5000164e-07 -5.47253e-07
0003f0 8a b2 12 35 53 32 85 33 6c 34 78 34 91 28 48 b4
       5.4649047e-07 6.202449e-08 2.3115871e-07 -1.864121e-07
